model.pth (torch, 942836 bytes, 6 tensors)

fc1.weight f4 [256, 784]
0	0x3b0111d0	0.0019694455
1	0xbd634326	-0.05548396
2	0xbce443da	-0.027864385
3	0xbc56b2d7	-0.013104162
4	0xbcca5702	-0.024699692
5	0xbcafe591	-0.02147177
6	0xbc61ce3b	-0.013782079
7	0xbce9b83a	-0.028530229
8	0x3b61e9f5	0.0034471725
9	0xbd61ef72	-0.055159993
10	0xbd287e34	-0.04113598
11	0x3b8f0770	0.0043649003
12	0x38c766f0	9.508233e-05
13	0xbd1ebdf6	-0.03875538
14	0x3bb5d5f9	0.005549189
15	0xbc935fb5	-0.017989973
16	0xbd3dd375	-0.04634424
17	0xbd09254d	-0.03348284
18	0xbcf7a5f4	-0.0302305
19	0xbc9d5954	-0.019207634
20	0xbd1eca86	-0.03876736
21	0x3ac44942	0.0014975446
22	0xbc835c31	-0.016035171
23	0x3c199ad5	0.009375294
24	0xbd1a4fd7	-0.037673797
25	0xbd3a71e6	-0.04551878
26	0xbd73bed0	-0.059508145
27	0xbd3fc00a	-0.046814002
28	0xbd273c14	-0.04082878
29	0x3c19c568	0.009385444
30	0x3c00bfa9	0.007858195
31	0xbd098912	-0.033577986
32	0xbcb9aea8	-0.02266629
33	0xbcf999b1	-0.030468794
34	0xbcbf4120	-0.023346484
35	0xbcd86551	-0.026415499
36	0xbd24f656	-0.040273987
37	0xbd2bddac	-0.04195945
38	0xbcba1508	-0.022715107
39	0x3bf48fa8	0.007463414
40	0xbc8ee422	-0.017442767
41	0xbd73d66a	-0.059530653
42	0xbd254f67	-0.040358927
43	0x3bf8228b	0.007572477
44	0xbd65fcdf	-0.05614936
45	0x38ca2a80	9.640027e-05
46	0x3c8b79dd	0.017025882
47	0xbaad4886	-0.0013220466
48	0xbd13ead5	-0.036112625
49	0x3c3a234c	0.0113609545
50	0xbd4905e8	-0.0490779
51	0xbd4d7cb0	-0.05016774
52	0xbd310a80	-0.043222904
53	0xbd2363c8	-0.03989008
54	0xbd312c85	-0.043255348
55	0xbc178fdd	-0.009250608
56	0xbcbd3aaa	-0.023099262
57	0xbd47b098	-0.048752397
58	0xbbacd847	-0.0052748057
59	0xbc14875d	-0.009065476
60	0xbab38290	-0.0013695527
61	0xbada2964	-0.0016644415
62	0xbcc66cef	-0.024221865
63	0xbcd8f218	-0.026482627
64	0x3c40bc2c	0.011763614
65	0x3ce5e931	0.028065296
66	0xbc839833	-0.016063785
67	0xbc59ff52	-0.013305502
68	0xbd6fdefd	-0.058562268
69	0xbd332c92	-0.043743677
70	0xbd28d645	-0.04121997
71	0xbc6f759e	-0.0146154445
72	0xbd14ab07	-0.036295917
73	0x3c927031	0.017875763
74	0xbcb011c5	-0.021492848
75	0x3c7f4bcb	0.015582035
76	0xbd354c08	-0.044261962
77	0xbad7c1e2	-0.001646098
78	0xbcf40f6a	-0.029792506
79	0xbd60a634	-0.054846004
80	0xbcf88ca0	-0.030340493
81	0xbc39e38a	-0.011345753
82	0xbd19807e	-0.037476055
83	0xbcf6904e	-0.030098107
84	0xbd63c3fe	-0.055606835
85	0xbcef7ec2	-0.029235248
86	0xbcde2c77	-0.027120812
87	0xbd5042a5	-0.050844807
88	0x3b9891a8	0.0046560355
89	0xbd1f8774	-0.038947538
90	0xbcfd4f8f	-0.030921726
91	0xbd0bf9da	-0.034173824
92	0xbcd4b65a	-0.025965858
93	0xbd5dd53e	-0.05415844
94	0xbda918b4	-0.08256665
95	0xbd0ed765	-0.034873385
96	0xbd95fa43	-0.07323124
97	0xbd4d6077	-0.050140824
98	0xbd52cc2d	-0.05146425
99	0xbd9c8c00	-0.076438904
100	0xbd9f69a3	-0.077838205
101	0xbb8e22d9	-0.0043376503
102	0xbd5168ce	-0.05112534
103	0x3c8c54de	0.017130312
104	0x3d326b4a	0.04355935
105	0xbb4ba197	-0.0031071657
106	0x3d2fd24a	0.042925157
107	0xbc4d57dc	-0.012533154
108	0xbd89a9aa	-0.06721814
109	0xbd746903	-0.05967046
110	0x3c81761c	0.01580339
111	0xbcfe99ac	-0.031079136
112	0xbd68d975	-0.05684801
113	0x3c12a03a	0.008949334
114	0xbcb3c687	-0.021945251
115	0xbcf3d24f	-0.029763369
116	0xbb6be8ad	-0.003599684
117	0xbc82ab85	-0.015950928
118	0xbd14ed58	-0.03635916
119	0xbcf4247d	-0.029802555
120	0x3ae6791f	0.0017583704
121	0xbaab406b	-0.0013065463
122	0xbca7819e	-0.020447548
123	0x3ce5f5b2	0.028071258
124	0x3c9ad12d	0.01889857
125	0x399c01b6	0.00029755913
126	0xbd45297e	-0.048135273
127	0xbd4cf341	-0.050036673
128	0x3b8607de	0.0040902933
129	0xbd4ed37f	-0.050494667
130	0x3cef8eaa	0.029242832
131	0x3ce27ef9	0.027648436
132	0xba0fd82b	-0.00054872286
133	0x3b5a74f2	0.0033333865
134	0x3d6645cc	0.056218907
135	0x3d099378	0.033587903
136	0x3c1192bb	0.008885081
137	0x3d07337c	0.033008084
138	0x3c85ca28	0.016331747
139	0xbcfd95cd	-0.03095522
140	0xbd1278a8	-0.035759598
141	0xbaf0aeac	-0.0018362603
142	0xbd595ad2	-0.05306513
143	0xbd23f574	-0.040029004
144	0xbd2a315d	-0.041550983
145	0xbc47723a	-0.01217323
146	0x3d07a57d	0.033116806
147	0xbbb72470	-0.0055890605
148	0xbd19dd0c	-0.037564322
149	0xbcdf70b7	-0.027275426
150	0xbcbb1c73	-0.022840714
151	0x3d22728d	0.039660025
152	0x3d37fbb1	0.044917766
153	0xbce2017e	-0.027588602
154	0x3c065e93	0.008201259
155	0xbac78cb1	-0.0015224424
156	0xbc96f043	-0.018425113
157	0x3bc80e1c	0.0061051976
158	0x3d2ed78d	0.042686034
159	0x3d2b82a9	0.041872654
160	0xbcaf0342	-0.021363858
161	0x3be89539	0.007097867
162	0x3da47a0f	0.08031093
163	0x3dc2dd60	0.0951488
164	0x3dd2a551	0.10285438
165	0x3d45d631	0.048299972
166	0x3d157869	0.036491785
167	0xbd0e9cf1	-0.03481764
168	0xbc0ffe6b	-0.008788685
169	0xbca51d2c	-0.020155512
170	0xbcc718e6	-0.024303865
171	0xbcffd980	-0.031231642
172	0x3d2b102d	0.041763473
173	0xbd027bb0	-0.03185624
174	0x3c6d3c98	0.014479779
175	0x3d89bacb	0.06725081
176	0x3d4223c0	0.047397375
177	0x3d70f5e3	0.058828246
178	0xbd8e61b1	-0.06952227
179	0xbc551c0a	-0.013007173
180	0xbc3e8044	-0.011627261
181	0xbc8371e2	-0.016045514
182	0xbb10654c	-0.0022033034
183	0xbd98c67d	-0.07459734
184	0xbce3de5f	-0.027815996
185	0x3cd3938f	0.025827197
186	0xbb858c5c	-0.00407557
187	0x3d3062ec	0.04306309
188	0x3caa4b72	0.020787928
189	0xbc987f65	-0.018615434
190	0x3d894780	0.06703091
191	0x3db10324	0.08643177
192	0x3dc6fb1d	0.09715865
193	0x3df3173e	0.118696675
194	0x3d22b4a1	0.039723042
195	0x3cd019f6	0.025403004
196	0xbd2bfa27	-0.04198661
197	0xbd4876bb	-0.048941355
198	0x3be042d2	0.006843903
199	0xbc74e6ea	-0.014947632
200	0xbc3f3e21	-0.0116725275
201	0x3d5827da	0.05277238
202	0x3d8b8d89	0.06814105
203	0x3dae7b0c	0.08519563
204	0x3dd36d92	0.10323633
205	0x3e03eadf	0.12882565
206	0x3d30e2e6	0.043185137
207	0x3cdee76a	0.027209956
208	0xbd21dbf0	-0.03951639
209	0xbcc3859d	-0.023867423
210	0xbcdb0685	-0.026736507
211	0xbd348a8c	-0.04407744
212	0xbc1e3bed	-0.009657842
213	0xbd7f7702	-0.062369354
214	0xbdad8f3b	-0.08474585
215	0xbcf25fb1	-0.029586645
216	0xbc18b801	-0.009321214
217	0xbcb16952	-0.021656666
218	0xbb6b3af2	-0.0035893288
219	0x3d8b47da	0.06800814
220	0x3e1766fe	0.14785382
221	0x3e1c24bd	0.1524839
222	0x3deb38f6	0.11485474
223	0x3d682a58	0.056681007
224	0xbcdfc49c	-0.02731543
225	0xb79c39a0	-1.8623483e-05
226	0x3cdb1387	0.02674271
227	0x3d3a591e	0.045495145
228	0x3b809377	0.003923829
229	0x3cafb15e	0.02144688
230	0xbc0e9a55	-0.008703788
231	0x3ca4f696	0.020137113
232	0xbd4f0c0c	-0.0505486
233	0xbd26931c	-0.04066764
234	0xbcc68f46	-0.02423824
235	0x3d307983	0.043084633
236	0x3da5cada	0.080953315
237	0x3d91c604	0.071178466
238	0x3d718bd3	0.058971237
239	0x3d548b46	0.051890634
240	0x3b359bc8	0.002771126
241	0xbd86fe05	-0.06591419
242	0xbdc677ff	-0.09690856
243	0x3c4da1aa	0.012550751
244	0x3d07d635	0.033163268
245	0x3d8bfdb2	0.06835498
246	0x3d1c5af2	0.03817267
247	0x3dabef69	0.08395273
248	0x3dd1ea4e	0.10249768
249	0x3ddba7ba	0.10725351
250	0x3dee642a	0.116401985
251	0x3da56268	0.0807541
252	0x3c1ae7c1	0.0094546685
253	0x3c7b5e8c	0.015342366
254	0x3d79b175	0.06096025
255	0x3d240a31	0.04004878

fc1.bias f4 [256]
0	0x3cd9cce6	0.026586961
1	0xbc5cba51	-0.013472156
2	0x3ad86d84	0.001651213
3	0xbbf0ccaf	-0.007348619
4	0x3c88780b	0.016658803
5	0x3cac9d66	0.021071147
6	0xbd0415bc	-0.03224729
7	0x3d536f6e	0.05161994
8	0xbbb8bc49	-0.0056376797
9	0xbc801e5a	-0.015639473
10	0xbb40c54a	-0.0029414468
11	0xbde419d0	-0.11137736
12	0xbd10ed7d	-0.035382736
13	0x3dded7d5	0.108810104
14	0xbdaf2e98	-0.08553809
15	0xbc943bc8	-0.018094912
16	0x3aa21326	0.0012365326
17	0xbda6d5b7	-0.081462316
18	0x3c9564ae	0.018236484
19	0xbd0767c9	-0.03305796
20	0x3c156b59	0.009119832
21	0x3c55510e	0.013019813
22	0xbd67d584	-0.05660011
23	0xbe0ab552	-0.1354573
24	0xbd163c6a	-0.03667871
25	0xbccc4a0d	-0.024937654
26	0xbda31000	-0.07962036
27	0xbc8f36aa	-0.01748212
28	0x3ce33bdf	0.02773851
29	0xbcc566e7	-0.02409692
30	0x3c86943d	0.016428107
31	0xbcde911d	-0.027168805
32	0xbd06846c	-0.03284113
33	0xbc0bc724	-0.008531366
34	0xbcfcdd7b	-0.030867329
35	0xbd664f0a	-0.05622772
36	0xbe179199	-0.14801635
37	0x3c8984d7	0.016786976
38	0x3b586554	0.003301938
39	0xbd282e67	-0.041059878
40	0xbde7a91c	-0.11311552
41	0xbd098e80	-0.033583164
42	0xbd26e978	-0.040749997
43	0xbda68f05	-0.081327476
44	0xbdc93341	-0.09824229
45	0x3ca2cb7b	0.019872418
46	0x3c15f478	0.009152524
47	0x3b137a1f	0.002250321
48	0xbcc1454d	-0.023592616
49	0xbd9efdda	-0.07763262
50	0xbd0df094	-0.03465326
51	0xbc9b6b3f	-0.018972037
52	0x3ba1fcf0	0.0049434826
53	0xbc276d86	-0.0102189835
54	0xbc380f5b	-0.01123413
55	0x3c8750a1	0.016517939
56	0xbdda4a61	-0.10658718
57	0xbcec677b	-0.028857937
58	0xbcbc1251	-0.022957953
59	0xbdc42e89	-0.095791884
60	0x3cadf7d9	0.021236347
61	0x3cc4d582	0.02402759
62	0xbdd222b5	-0.10260526
63	0xbd1a1128	-0.037614018
64	0xbd1008b7	-0.03516456
65	0x3be0cc04	0.006860258
66	0xbc7b452f	-0.015336319
67	0xba5076a8	-0.00079522515
68	0xbcfd6206	-0.03093053
69	0xbd14eadd	-0.036356796
70	0xbd6fe5fd	-0.058568943
71	0x3cbc4660	0.022982776
72	0xbca7f4b9	-0.020502435
73	0xbd904410	-0.07044232
74	0x3c944372	0.018098567
75	0xbdf00e11	-0.11721433
76	0xbb1844a1	-0.0023234265
77	0xbc931c86	-0.017957937
78	0xbd2b21bf	-0.04178023
79	0xbb8ee65d	-0.0043609575
80	0xbdbe23f5	-0.09284202
81	0xbda30ca3	-0.07961395
82	0xbb0eeb16	-0.0021807603
83	0xbd245889	-0.040123496
84	0xbd2d4898	-0.04230556
85	0xbc2a5f3e	-0.010398684
86	0x3bae4103	0.0053178086
87	0xbdc97419	-0.09836597
88	0xbc382444	-0.011239115
89	0x3d400da0	0.046887994
90	0xbc6786ab	-0.014131228
91	0xbc792ec4	-0.015208904
92	0x3cd287f9	0.025699602
93	0xbcfb608e	-0.03068569
94	0x3c430035	0.011901905
95	0x3dd8ef2e	0.10592495
96	0xbd7ffe7d	-0.06249856
97	0x3c60e316	0.0137260165
98	0x3c132402	0.008980753
99	0x3d8e143d	0.06937454
100	0xbc8d9ec1	-0.017287614
101	0xbd304b25	-0.043040413
102	0xbbd0dbd8	-0.0063738637
103	0x3c62f1b5	0.013851573
104	0xbdf677be	-0.12034558
105	0x3cd2d66b	0.025737008
106	0x3c923499	0.017847346
107	0xbb803f6b	-0.00391381
108	0xbc1e0935	-0.00964575
109	0xbccd5b15	-0.025067845
110	0xbc46ae66	-0.012126541
111	0x3cc4a570	0.024004668
112	0x3c9a7e96	0.018859189
113	0x3cc883c3	0.024476891
114	0xbd8591f9	-0.06521983
115	0xbc9f5dd0	-0.019453913
116	0xbe040239	-0.12891473
117	0x3acba571	0.0015536976
118	0x3c1aed00	0.009455919
119	0xbbf35fc8	-0.0074271895
120	0x3c924974	0.01785729
121	0xbc83086e	-0.01599523
122	0xbd2ceb86	-0.0422168
123	0xbd0a85e4	-0.033819094
124	0x3cce70f2	0.02520034
125	0x3d1e1296	0.038591944
126	0xbd184f78	-0.037185162
127	0xbdb84648	-0.0899778
128	0xbd13c4cd	-0.036076356
129	0xbc3da69f	-0.01157537
130	0xbd8a1848	-0.067429125
131	0x3c2571e8	0.010097958
132	0x3c34ef3b	0.011043365
133	0x3c856cda	0.016287256
134	0xbd6fe28c	-0.05856566
135	0x3ce8ae93	0.028403556
136	0x3c930494	0.017946519
137	0xbda43cd9	-0.08019418
138	0xbb832d86	-0.0040032296
139	0xbd0f84ac	-0.035038635
140	0xbe169776	-0.14706215
141	0xbc0961ef	-0.008385166
142	0xbc928e67	-0.017890168
143	0xbdab14ad	-0.08353553
144	0xbd8912d5	-0.06693045
145	0xbcefffd4	-0.029296793
146	0x3caf27e4	0.021381326
147	0xbc583186	-0.013195401
148	0x3b4eddfa	0.0031565414
149	0x3a465805	0.00075662165
150	0x3b303803	0.0026888854
151	0xbdd193c0	-0.10233259
152	0x3cb0a97b	0.02156519
153	0xb9c94373	-0.0003838796
154	0xbd10be40	-0.035337687
155	0x3c1d2751	0.009591893
156	0x3be249d1	0.0069057723
157	0xbd0cbe2b	-0.034361046
158	0xbdebe874	-0.11518946
159	0x3d819e2e	0.063289985
160	0xbd1320b3	-0.035919856
161	0xbd764de7	-0.060132887
162	0x3c9cb479	0.019129025
163	0xbd27d451	-0.040973965
164	0xbdb5728a	-0.08859737
165	0xbd5450ac	-0.051834747
166	0xbd578f67	-0.052626994
167	0x3b1a31e7	0.002352828
168	0xbce082c0	-0.027406096
169	0xba4f8087	-0.00079155754
170	0xbceb7d26	-0.028746199
171	0xbd3a3262	-0.045458205
172	0xbbad92e3	-0.0052970513
173	0x3d845ee3	0.06463411
174	0xbcbcde2f	-0.023055164
175	0xbc98c98b	-0.01865079
176	0x3cce496a	0.02518149
177	0xbd758f11	-0.059950892
178	0xbd49abaf	-0.049235996
179	0xbd8802ab	-0.06641134
180	0xbc3aa1a7	-0.01139108
181	0x3bc44228	0.0059893318
182	0xbd20edc7	-0.039289262
183	0xbcf6b327	-0.030114723
184	0xbdad1d3c	-0.08452842
185	0xbd174af7	-0.036936726
186	0xbde0a578	-0.10969061
187	0x3d1c5d1c	0.038174734
188	0x3d9cfd4d	0.07665501
189	0x3cd6a60f	0.02620223
190	0x3c96fab8	0.018430099
191	0xbcd15d41	-0.025557162
192	0x3a00795d	0.0004900897
193	0x3cad11d1	0.02112666
194	0xbc0bf0e5	-0.00854132
195	0xbca3f987	-0.020016445
196	0xbba74731	-0.005104922
197	0xbcaa2e73	-0.020774102
198	0x3c87270f	0.016498117
199	0xbc8a6656	-0.0168945
200	0xbd01a221	-0.03164876
201	0xbd83fd8c	-0.064448446
202	0x3cd7cc1a	0.02634244
203	0x3bf58989	0.007493202
204	0xbc9686a8	-0.018374756
205	0x3cb65366	0.022256564
206	0xbc0a8fb8	-0.008457117
207	0xbc772bd5	-0.015086134
208	0xbd06c5ce	-0.032903485
209	0xbcc3d550	-0.023905426
210	0x3c6e45c3	0.014543
211	0x3cfb52f4	0.030679204
212	0x3b8d096c	0.0043041017
213	0x3cc68585	0.024233589
214	0xbcb4a39e	-0.022050675
215	0xbd065454	-0.032795265
216	0xbcdc3ea5	-0.02688534
217	0x3ad99cd7	0.0016602528
218	0xbd0ee737	-0.034888472
219	0x3cf36a4f	0.029713778
220	0xbe009f74	-0.12560827
221	0xbdca55a3	-0.09879615
222	0xbcef3b2c	-0.02920302
223	0xbcf4300e	-0.02980807
224	0xbd11d264	-0.035601035
225	0x3d0ab058	0.03385958
226	0xbdd9f366	-0.10642128
227	0xbca2f7e1	-0.019893588
228	0xbcf340d9	-0.029694008
229	0xbd3c6db8	-0.046003073
230	0xbd832adf	-0.064046614
231	0xbdb150c2	-0.086579815
232	0xbd2d986a	-0.04238168
233	0xbc798966	-0.015230512
234	0xbcf4790f	-0.029842881
235	0xbc709dc4	-0.014686052
236	0xbd189a3d	-0.037256468
237	0xbcf7741b	-0.03020673
238	0xbe1af865	-0.15133817
239	0x3bc61bab	0.0060457787
240	0x3c959924	0.0182615
241	0x3cbd3b23	0.023099488
242	0xbbe73e49	-0.0070569855
243	0xbd422b16	-0.04740437
244	0xbd0acfc5	-0.03388955
245	0xbb08efd5	-0.0020894904
246	0x3c7004a9	0.014649549
247	0xbd0b3606	-0.033987068
248	0xbd7e0e93	-0.062025618
249	0x3a8b032b	0.0010605803
250	0xbcc50daa	-0.024054367
251	0xbd4b3245	-0.049608488
252	0x3cc56192	0.024094377
253	0xbc23c46d	-0.009995562
254	0xbccf333f	-0.02529299
255	0xbde32e41	-0.110928066

fc2.weight f4 [128, 256]
0	0x3d825cb0	0.06365335
1	0x3d0aded4	0.03390391
2	0x3cd81822	0.026378695
3	0xbc8b4aea	-0.017003495
4	0x3d8050ce	0.06265412
5	0x3d23c127	0.039979126
6	0xbca19ef0	-0.019729108
7	0xbd30c854	-0.043159798
8	0x3d5f4f06	0.054518722
9	0x3ad3c9d7	0.0016158175
10	0xbc8ba615	-0.017046968
11	0xbd91614a	-0.070986345
12	0x3e0f3a54	0.13987094
13	0xbd9df05b	-0.0771186
14	0xbd398976	-0.04529711
15	0xbcc441be	-0.02395713
16	0xbd1e5e2d	-0.03866403
17	0xbdadf1c6	-0.0849338
18	0x3d092669	0.033483896
19	0x3cc439da	0.023953367
20	0xbd30d438	-0.043171138
21	0xbc433be7	-0.011916137
22	0xbbd1764b	-0.0063922754
23	0x3e1c4d48	0.15263855
24	0x3d7839f5	0.060602147
25	0xbd0e3619	-0.03471956
26	0x3d31a677	0.043371644
27	0x3d4f5b03	0.050623905
28	0x3d84206d	0.06451497
29	0x3d87ed37	0.06637042
30	0x3d23894a	0.03992585
31	0xbd1ae207	-0.037813213
32	0x3d65320a	0.055955924
33	0x3d0b4f7e	0.034011357
34	0xbd5e629a	-0.054293253
35	0x3beac57c	0.0071646553
36	0x3de860ef	0.113466136
37	0xbd79bf04	-0.060973182
38	0xbd3278a1	-0.043572072
39	0xbc8aaee3	-0.016929096
40	0xbd3097ae	-0.043113403
41	0x3d4b5485	0.04964115
42	0xbc4c638b	-0.012474905
43	0x3c01730f	0.007900967
44	0x3d0f3095	0.03495844
45	0x3cbf8820	0.02338034
46	0x3c308de5	0.010776018
47	0x3d1f3817	0.03887185
48	0x3d236908	0.039895087
49	0xbd8192fc	-0.06326863
50	0xbce05316	-0.027383368
51	0xbcbfb7ab	-0.02340301
52	0x3c8bac87	0.01705004
53	0xbd7074e8	-0.05870524
54	0x3d87148a	0.065957144
55	0xbcde1e9f	-0.02711421
56	0x3d370ad8	0.044688076
57	0x3cee2965	0.029072473
58	0xbcea126e	-0.028573241
59	0x3c6b3a58	0.014357172
60	0x3ba3c79b	0.00499816
61	0x3c86759f	0.016413508
62	0xbda3405f	-0.07971262
63	0xbc9065ff	-0.01762676
64	0xbca25ff3	-0.019821143
65	0x3d79aaeb	0.060954016
66	0x3d538e60	0.05164945
67	0xbd834350	-0.06409323
68	0xbd27462f	-0.040838417
69	0xbd41fa65	-0.047357935
70	0x3cc136f5	0.023585776
71	0x3d27c0d6	0.040955387
72	0xbccf84af	-0.025331823
73	0xbbfb6759	-0.007672232
74	0xbd4f9b7a	-0.050685383
75	0x3db42106	0.08795361
76	0xbc839d38	-0.016066179
77	0xbcdaacf3	-0.026693797
78	0x3d02063f	0.031744238
79	0x3d46c587	0.04852822
80	0xbd474699	-0.04865131
81	0x3c9c3e4c	0.019072674
82	0x3cef2146	0.02919067
83	0x3cb4b5cc	0.022059344
84	0x3d5bb700	0.05364132
85	0xbce007d8	-0.02734749
86	0xbd3973c2	-0.04527641
87	0xbbb0c7b3	-0.0053948998
88	0xbd2e09c9	-0.0424898
89	0xbdc455e3	-0.09586694
90	0x3cd9eafc	0.026601307
91	0x3cd47bdc	0.025937967
92	0x3d133bf0	0.035945833
93	0x3cf95394	0.030435361
94	0xbd545673	-0.051840257
95	0xbc9d394c	-0.01919236
96	0xbbd2730c	-0.006422406
97	0xbc5c8422	-0.013459237
98	0xbd40ac5a	-0.047039367
99	0xbd2f1ca6	-0.04275193
100	0xbcfaa178	-0.030594572
101	0x3c7b80ff	0.015350579
102	0xbc9eab6b	-0.019368848
103	0x3bf56471	0.00748878
104	0xbd84bf9e	-0.064818606
105	0xbda3a42c	-0.07990298
106	0xbbf5ee1e	-0.0075051924
107	0x3bd9a34f	0.0066417824
108	0x3bf46526	0.007458347
109	0xbca1bcd0	-0.019743353
110	0x3d225374	0.03963037
111	0xbc297ca1	-0.010344655
112	0x3c0226a5	0.007943784
113	0xbd7b6869	-0.06137887
114	0x3d095303	0.03352643
115	0x3c850e5f	0.016242204
116	0x3c9d0f1f	0.01917225
117	0x3d5547ac	0.052070305
118	0xbcf6c127	-0.0301214
119	0xbc707e09	-0.014678487
120	0x3c8f9da0	0.017531216
121	0x3d5a8d0b	0.053357165
122	0x3d5885b9	0.052861903
123	0x3d0ab08d	0.03385978
124	0xbc140578	-0.009034507
125	0xbe62184b	-0.2207958
126	0x3cc26944	0.023731835
127	0x3e7de969	0.2479607
128	0x3cf365db	0.029711654
129	0xbe61bbbc	-0.22044271
130	0x3d9ab7f3	0.07554617
131	0xbd5cc567	-0.053899195
132	0x3cacd2d8	0.021096632
133	0x3d53a4ec	0.051670954
134	0x3d3f3539	0.046681616
135	0x3ccc0917	0.024906678
136	0xbd711144	-0.058854356
137	0x3eaa85d0	0.33305216
138	0xbcd9255d	-0.026507074
139	0xbc62fca4	-0.0138541795
140	0x3e2bfadb	0.16794913
141	0x3b338c40	0.0027396828
142	0x3d80f339	0.06296391
143	0xbdc1669b	-0.094433986
144	0x3f12dd23	0.5736868
145	0xbb9ef46f	-0.004850916
146	0xbd396993	-0.0452667
147	0x3d7344bb	0.05939172
148	0x3aa7ba73	0.0012796655
149	0xbd2a6abf	-0.041605707
150	0xbbe2c8ac	-0.0069208946
151	0xbd7710d5	-0.060318787
152	0xbd299a92	-0.041407175
153	0x3d7c4603	0.061590206
154	0x3d566915	0.052346308
155	0x3c05db6c	0.00816999
156	0xbbd20088	-0.0064087547
157	0xbd02e862	-0.0319599
158	0x3dfd1229	0.123569794
159	0xbddd01c7	-0.107913546
160	0xbc21dc4a	-0.009879181
161	0xbd4bb89a	-0.049736597
162	0xbd213f60	-0.03936708
163	0x3c77d6f1	0.01512693
164	0xbdcb2b66	-0.09920387
165	0x3e1300f3	0.14355831
166	0x3e037a71	0.12839676
167	0xbd1f6049	-0.038910184
168	0xbcc18500	-0.02362299
169	0xbba72301	-0.0051006083
170	0x3c882515	0.016619245
171	0x3d17c1b9	0.037049983
172	0x3d4788ce	0.04871445
173	0xbdf9e688	-0.122021735
174	0xbd6148fa	-0.055001236
175	0xbd2f8021	-0.042846803
176	0x3c343ce3	0.011000845
177	0x3e56fbf9	0.20994557
178	0x3e081491	0.13289095
179	0x3a0d53ad	0.0005391192
180	0xbc186e04	-0.0093035735
181	0x3d390ec1	0.045180086
182	0xbcc40f42	-0.023933057
183	0x3bb25dce	0.0054433113
184	0xbc568ebc	-0.013095554
185	0x3d352100	0.044220924
186	0x3e02822b	0.12744968
187	0xbded9201	-0.11600114
188	0xbd4276a9	-0.047476444
189	0x3c8f1be0	0.017469347
190	0xbcbf7176	-0.023369532
191	0x3c030113	0.007995862
192	0x3e00613a	0.12537089
193	0x3cf6d3d4	0.030130304
194	0x3d1aac1e	0.0377618
195	0x3ce3b1a0	0.02779466
196	0x3c41874c	0.011812042
197	0xbd63e90a	-0.055642165
198	0x3d638cf1	0.055554334
199	0xba71e11e	-0.00092269655
200	0xbb3be1b6	-0.002866847
201	0x3d91077e	0.07081507
202	0x3d3c1765	0.04592075
203	0x3d2a0a6c	0.041513845
204	0xbd59387f	-0.053032394
205	0x3d6bcc8b	0.057568114
206	0x3d58406b	0.05279581
207	0xbbad246b	-0.0052838824
208	0x3d649050	0.05580169
209	0xbc709f35	-0.014686395
210	0xbc10e962	-0.008844705
211	0xbc68d45f	-0.014210789
212	0x3d129a4c	0.03579168
213	0xba97871d	-0.0011560653
214	0x3d8d06a9	0.06886036
215	0xbd065982	-0.032800205
216	0xbbaaaae0	-0.005208358
217	0xbcaddc01	-0.02122307
218	0x3dec6e2a	0.115444496
219	0xbca10f92	-0.019660745
220	0x3d2fe8ff	0.04294681
221	0x3d534fd5	0.051589806
222	0xbcbf4620	-0.023348868
223	0x3d4d339b	0.050098043
224	0xbb17e8b5	-0.0023179476
225	0xbc193b42	-0.009352507
226	0x3dd26b58	0.102743804
227	0xbc180b63	-0.009280059
228	0xbb2ddd7b	-0.0026529718
229	0xbcab7f40	-0.020934701
230	0x3d8ec100	0.069704056
231	0xbdb8e318	-0.0902769
232	0xbd3f87a4	-0.046760216
233	0x3dcff49a	0.10154076
234	0xbc50bc62	-0.012740226
235	0x3d06672a	0.03281323
236	0x3d90094e	0.07033025
237	0x3d54e939	0.05198023
238	0x3e17bb6d	0.14817591
239	0xbd28d856	-0.04122194
240	0xbcb8921a	-0.022530604
241	0x3d31a9c0	0.043374777
242	0xbcdb2b86	-0.026754152
243	0x3e07a90b	0.13248079
244	0xbcd98cb9	-0.02655636
245	0xbd3e5abc	-0.04647325
246	0x3cff7878	0.031185374
247	0xbb97c75f	-0.004631921
248	0xbe91f5dd	-0.2850789
249	0x3cd731ee	0.026268926
250	0xbbba90bc	-0.005693523
251	0xbd3667c1	-0.04453254
252	0x3cbd7e50	0.02313152
253	0x3d5edf96	0.054412447
254	0x3d18f243	0.037340414
255	0x3dbf8875	0.09352199

fc2.bias f4 [128]
0	0x3f05149f	0.5198459
1	0x3f667e6b	0.9003665
2	0x3f4bf0e4	0.79664445
3	0x3e3e758a	0.18599525
4	0xbe24d991	-0.1609862
5	0xbe0cab59	-0.13737239
6	0xbe0c9152	-0.1372731
7	0x3e64439a	0.22291413
8	0x3f797291	0.9744044
9	0x3e14fad4	0.14548808
10	0xbe9f8604	-0.31156933
11	0x3f6ed41d	0.9329241
12	0x3b708df8	0.0036705714
13	0x3f7d613a	0.9897648
14	0xbeac693d	-0.3367404
15	0x3f6ae214	0.9175122
16	0xbe564fc0	-0.2092886
17	0xbf070d8e	-0.5275506
18	0x3f448dd3	0.76778907
19	0x3e976cc3	0.29575166
20	0x3f9be2fd	1.2178646
21	0x3f9d30ba	1.2280495
22	0x3f60d651	0.8782702
23	0xbe8e3464	-0.27774346
24	0x3fba4d45	1.4554831
25	0xbf2a9ea0	-0.6664829
26	0x3f1f0a5d	0.6212519
27	0x3f51ee39	0.82004124
28	0x3f784a78	0.9698863
29	0x3f968ffc	1.176269
30	0x3e648d5a	0.22319546
31	0x3f09785d	0.53699285
32	0x3ee1b3a3	0.44082364
33	0x3ee08bef	0.4385676
34	0x3f0c7550	0.54866505
35	0xbed5a36c	-0.41726243
36	0x3bdf8a89	0.0068219346
37	0xbd430c94	-0.047619417
38	0x3e967f81	0.29394153
39	0x3f81725a	1.0113022
40	0x3f02cc2a	0.5109278
41	0xbedc6fc2	-0.43054014
42	0x3f4b3002	0.7937013
43	0xbe9e8f17	-0.30968544
44	0x3dda6cae	0.1066526
45	0x3f2a6c6f	0.66571707
46	0xbd6e7619	-0.058218095
47	0x3f58a768	0.8463044
48	0x3f1bc5c6	0.60848653
49	0x3efa90eb	0.4893869
50	0xbee32686	-0.4436533
51	0x3f2cc4c9	0.6748777
52	0x3f2c4f08	0.6730809
53	0xbda268b0	-0.07930124
54	0x3f18ca27	0.5968346
55	0x3e6ae28d	0.22937985
56	0x3f51cac6	0.8195003
57	0xbf01671f	-0.50547975
58	0x3d3c5561	0.04597986
59	0x3f2a1025	0.66430885
60	0x3eaebade	0.34126943
61	0xbe5dd204	-0.21662146
62	0x3dbf5ef2	0.09344281
63	0x3e7155a7	0.2356783
64	0x3f03f8eb	0.51551694
65	0x3f533271	0.8249884
66	0xbf4cfc28	-0.8007226
67	0xbf4d74e7	-0.80256504
68	0x3ea48f79	0.3214071
69	0x3ebb6ead	0.36607876
70	0x3f6c4fc4	0.9230921
71	0xbe70d046	-0.2351695
72	0xbe0343f3	-0.1281889
73	0x3eab2dac	0.33433282
74	0x3daf5e99	0.08562965
75	0x3f1079d7	0.5643591
76	0x3f21803b	0.6308629
77	0x3e3b347e	0.18281743
78	0x3eb61e36	0.35569924
79	0x3fadc738	1.3576422
80	0xbf47eef4	-0.7809899
81	0x3ea0d451	0.31411985
82	0xbe0d74d7	-0.13814102
83	0x3f9d96ca	1.2311642
84	0x3f50ff01	0.81639105
85	0x3f0b4fc1	0.5441857
86	0x3ef9a63c	0.4875964
87	0x3ec99e24	0.39378464
88	0x3e5be246	0.21473035
89	0xbf362a0c	-0.7115791
90	0x3e86374c	0.26214063
91	0x3eb20e0b	0.3477634
92	0x3f0852e7	0.532515
93	0xbe6a4581	-0.22878076
94	0x3dbc5cb8	0.09197372
95	0x3f6bbc85	0.9208453
96	0x3f554a6d	0.8331669
97	0xbe3c6617	-0.18398319
98	0x3e3ed81f	0.18637131
99	0x3fa56a0c	1.2922988
100	0xbea5c9b3	-0.32380447
101	0x3fa1b481	1.263321
102	0x3f1ea760	0.61974144
103	0x3f9ca84a	1.2238858
104	0x3f3739cb	0.7157256
105	0x3f69c0a6	0.91309583
106	0x3f28f7b7	0.6600298
107	0xbda79857	-0.081833534
108	0x3f2ff7ef	0.6873769
109	0x3f17ad10	0.5924845
110	0xbf11800b	-0.56836003
111	0x3d084b4b	0.03327493
112	0x3ec1399d	0.37739268
113	0xbe51855e	-0.20461032
114	0x3e960c30	0.29306173
115	0x3f4fa838	0.81116056
116	0x3d8d99e1	0.06914116
117	0x3f186540	0.59529495
118	0x3e4bacd3	0.19890146
119	0x3ee8736a	0.45400554
120	0xbeaccee7	-0.33751604
121	0x3f044fd0	0.51684284
122	0x3e9a17ab	0.30096182
123	0x3f682b59	0.90691143
124	0x3ef7f3aa	0.48428088
125	0x3f4555ac	0.7708385
126	0x3ecea751	0.40362027
127	0x3f51357e	0.8172225

fc3.weight f4 [10, 128]
0	0xbe84ac63	-0.2591277
1	0xbe478c3b	-0.19487087
2	0xbe000733	-0.12502746
3	0xbd8663af	-0.06561982
4	0x3d07c9e5	0.033151526
5	0x3d806059	0.06268377
6	0x3d87ca03	0.066303276
7	0x3d7e47af	0.06208008
8	0xbe4ba4f0	-0.19887137
9	0x3d2f380d	0.042778064
10	0xbd168877	-0.036751237
11	0xbe4b9713	-0.19881849
12	0x3d1ed019	0.038772676
13	0xbdc363c8	-0.09540516
14	0xbe0ad2d4	-0.13556987
15	0x3cc485a0	0.023989499
16	0x3d9a9561	0.07548023
17	0xbd101fe2	-0.035186656
18	0xbe091ece	-0.13390657
19	0xbdcc8630	-0.09986532
20	0x3dd7eb6a	0.105429485
21	0x3d1b2d53	0.03788502
22	0xbd748391	-0.059695784
23	0xbb093d8f	-0.0020941233
24	0x3d507e38	0.05090162
25	0x3d176ac8	0.03696707
26	0xbe24f4ac	-0.1610896
27	0xbda503b0	-0.08057344
28	0xbdf85ce0	-0.121270895
29	0xbd8aea94	-0.067830235
30	0xbcd2931c	-0.025704913
31	0xbe1d9a91	-0.15390994
32	0x3d48ec47	0.049053457
33	0xbe08b878	-0.13351619
34	0xbc18488f	-0.009294643
35	0x3cd5d37d	0.026101822
36	0x3d020775	0.031745393
37	0x3d25337d	0.040332306
38	0x3d8b9cff	0.06817054
39	0xbdab44f2	-0.0836276
40	0xbcade7d8	-0.021228716
41	0xbdca1ba7	-0.098685555
42	0x3db42806	0.08796696
43	0x3ca710cd	0.020393753
44	0xbe2224c3	-0.15834336
45	0xbda1623f	-0.07880067
46	0xbb658126	-0.0035019605
47	0x3cc7336d	0.024316514
48	0xbd2ca7b0	-0.042152107
49	0x3cb0bce2	0.021574441
50	0xbe067fc8	-0.13134682
51	0xbccef208	-0.025261894
52	0x3db24fe2	0.08706643
53	0xbd871912	-0.06596579
54	0xbe576d1e	-0.21037719
55	0xbe83565c	-0.25651824
56	0xbe20c39e	-0.15699622
57	0xbe19fc42	-0.15037635
58	0x3d9713f1	0.073768504
59	0xbd5d3002	-0.054000862
60	0x3e139498	0.14412153
61	0xbd7fb48d	-0.062428046
62	0xbe5a3ace	-0.21311495
63	0x3d86a78c	0.06574926
64	0x3dd11adc	0.10210201
65	0x3dd1c62c	0.102428764
66	0xbd757158	-0.059922546
67	0x3d1c99d4	0.03823264
68	0x3cd05dd1	0.02543536
69	0xbe3c9ea7	-0.18419896
70	0xbe10e506	-0.14149866
71	0x3d8d782e	0.06907688
72	0x3d2caa20	0.04215443
73	0xbdf98046	-0.12182669
74	0x3d195506	0.0374346
75	0x3cf3c715	0.029758016
76	0xbe4bf71d	-0.19918485
77	0x3da988b8	0.0827803
78	0xbe1a1f4a	-0.15050998
79	0x3e1844b7	0.14869963
80	0xbcaf7577	-0.021418316
81	0x3dfa8829	0.12233002
82	0x3c14ddb2	0.009086059
83	0x3e1e473a	0.15456858
84	0x3db6935e	0.08914827
85	0x3d05879f	0.03260004
86	0xbd7d6c2f	-0.06187075
87	0xbdc21969	-0.09477503
88	0x3d216167	0.03939953
89	0xbdbe669a	-0.092969134
90	0xbbbde54d	-0.005795157
91	0x3d0fe7ba	0.0351331
92	0x3be4218b	0.0069620064
93	0x3d2c8c12	0.04212577
94	0xbc4a4ce4	-0.012347434
95	0xbd723588	-0.059133083
96	0xbdc216a1	-0.09476972
97	0xbde927c4	-0.11384538
98	0x3c5c7fff	0.013458251
99	0x3d692e16	0.056928717
100	0xbd73223b	-0.059358817
101	0x3e182c68	0.1486069
102	0xbc9445d6	-0.018099707
103	0x3e09d9dc	0.13462013
104	0xbd63eb83	-0.055644523
105	0x3dc57bcf	0.09642755
106	0x3b9a0212	0.004699954
107	0x3c42d06d	0.011890513
108	0x3e00dc0e	0.12583944
109	0x3d5c1245	0.05372836
110	0x3daeb522	0.08530642
111	0x3d842357	0.06452053
112	0x3e284da0	0.16435862
113	0xbdc7732d	-0.09738765
114	0xbe355846	-0.17709455
115	0xbd8b8c83	-0.0681391
116	0x3c96a60b	0.018389722
117	0xbe081db7	-0.13292585
118	0x3df5453a	0.119760945
119	0x3e018a40	0.12650394
120	0x3da86454	0.08222261
121	0x3db50949	0.08839662
122	0x3cadf54f	0.021235136
123	0xbdb5e0b3	-0.088807486
124	0xbe010b52	-0.12601975
125	0x3d60fc36	0.054928027
126	0x3db941e8	0.09045774
127	0x3ccaa087	0.024734749
128	0xba79b831	-0.0009526043
129	0xbe72b63e	-0.23702332
130	0x3dc844af	0.09778725
131	0x3d908503	0.0705662
132	0xbc89076f	-0.016727177
133	0x3c7aae87	0.0153004
134	0xbdd229a9	-0.10261852
135	0xbe03e35f	-0.12879704
136	0xbe2a70a8	-0.16644537
137	0xbc105c72	-0.008811103
138	0x3d7fdc27	0.062465813
139	0x3db7c381	0.08972836
140	0xbc7c22f5	-0.015389194
141	0xbe3ea369	-0.18617024
142	0x3d2a9746	0.04164817
143	0x3c1ab0bf	0.009441554
144	0xbe121d9e	-0.1426911
145	0x3d81fa05	0.063465156
146	0xbce4f285	-0.027947674
147	0x3cca73dc	0.02471345
148	0x3dd1c0b1	0.10241831
149	0x3dc1cad4	0.094625145
150	0x3def5068	0.11685258
151	0x3d6943b9	0.05694935
152	0x3e0aebf2	0.13566568
153	0xba541edf	-0.00080917584
154	0x3df88594	0.12134853
155	0x3da35a84	0.07976249
156	0xbdab7a97	-0.083729915
157	0xbe14a7cc	-0.14517134
158	0x3dd38024	0.10327175
159	0xbd24c340	-0.040225267
160	0xbcb1593e	-0.021649
161	0xbe321e72	-0.17394426
162	0xbd6ff512	-0.058583327
163	0x3d19490c	0.03742318
164	0xbdcd2e42	-0.100185886
165	0x3dcb620a	0.09930809
166	0xbdccb00a	-0.09994514
167	0x3dd28217	0.10278719
168	0x3d3681f6	0.044557534
169	0x3d6a6b5c	0.057231292
170	0x3d35779d	0.044303525
171	0xbc1aee21	-0.009456188
172	0xbd53717d	-0.051621903
173	0xbcf20c68	-0.029546931
174	0x3d9bb136	0.0760216
175	0x3a021bcd	0.0004963249
176	0xbe4d2751	-0.2003453
177	0xbe441a24	-0.19150597
178	0x3d3211bb	0.04347394
179	0xbccb5a70	-0.024823397
180	0xbe207f70	-0.15673614
181	0xbe23b081	-0.159853
182	0xbe50792b	-0.20358722
183	0xbe1007a2	-0.14065412
184	0xbde055a1	-0.109538324
185	0x3cb8a2c7	0.022538556
186	0x3d849350	0.0647341
187	0xbe2eeb0f	-0.17081855
188	0xbe6f58e8	-0.23373759
189	0xbd819ae4	-0.06328371
190	0xbdb0dfc9	-0.08636434
191	0x3c9dda48	0.019269124
192	0x3dc55163	0.09634664
193	0xbdb5ac5f	-0.08870768
194	0x3c9f7d9b	0.019469073
195	0x3a627778	0.0008639018
196	0xbe81844f	-0.25296256
197	0x3d5df647	0.054189947
198	0x3dc138a5	0.09434632
199	0x3d3ddf39	0.04635546
200	0xbc814335	-0.015779117
201	0x3d3b614e	0.045747094
202	0x3cee295b	0.029072454
203	0x3c883d4d	0.016630793
204	0x3cd67f0a	0.026183624
205	0x3d9e0117	0.077150516
206	0x3d70f8fe	0.058831207
207	0x3e379521	0.17927982
208	0x3d91859e	0.071055636
209	0xbe0396b2	-0.12850454
210	0xbe5474da	-0.207477
211	0x3e343132	0.17596892
212	0xbdc13233	-0.09433403
213	0xbe67b29c	-0.22626728
214	0xbe663115	-0.22479661
215	0xbcbbe308	-0.022935405
216	0xbdd33354	-0.103125244
217	0x3c8963bc	0.01677119
218	0xbdf11027	-0.11770659
219	0xbe3a36be	-0.18184945
220	0xbe5d6c27	-0.21623288
221	0xbe4c96f9	-0.19979466
222	0x3d5c8f52	0.05384762
223	0xbdc16378	-0.094428
224	0xbd1b52ac	-0.03792064
225	0x3d5cb4ca	0.05388335
226	0xbcfa19d8	-0.030529901
227	0x3d4e54b7	0.05037376
228	0xbcb32a6e	-0.021870818
229	0x3da7ce2a	0.081936195
230	0x3d17024d	0.03686743
231	0xbe244442	-0.16041663
232	0xbe486ca5	-0.19572695
233	0x3d868a2a	0.065693215
234	0x3dba4b35	0.09096376
235	0x3c528dc3	0.012851181
236	0xbe7ab242	-0.24482062
237	0xbe59a39a	-0.21253815
238	0x3d3488ae	0.04407566
239	0xbe2a6143	-0.16638665
240	0x3cafcc24	0.021459647
241	0x3d882899	0.066483684
242	0x3d1bf206	0.03807261
243	0x3dfeee18	0.124477565
244	0x3d7c28b9	0.061562274
245	0x3d9ad430	0.07560003
246	0xbe6b03d8	-0.22950685
247	0x3e0b6868	0.13614047
248	0xbd5657e3	-0.05232991
249	0xbe6c0319	-0.23048057
250	0x3d6dfea5	0.058104176
251	0xbdf16eaf	-0.11788689
252	0x3dda91e5	0.106723584
253	0xbc55886f	-0.013033017
254	0x3dc1c8e2	0.094621435
255	0x3e147b9d	0.1450028

fc3.bias f4 [10]
0	0xbe840d97	-0.25791618
1	0x3e125fd1	0.14294364
2	0xbebd4265	-0.36964718
3	0xbea60598	-0.32426143
4	0x3e38db36	0.18052372
5	0xbdfeab92	-0.12435068
6	0xbdf904fc	-0.12159154
7	0xbf31ded0	-0.6948061
8	0x3f49ac57	0.78778595
9	0x3f000279	0.5000377
