model.pth (torch, 942836 bytes, 6 tensors)

fc1.weight f4 [256, 784]
0	0x3cbd2d0c	0.02309277
1	0x3caeb08f	0.021324424
2	0x3b0d70b7	0.0021582076
3	0xbc7934ab	-0.015210311
4	0xbcdf9350	-0.027291924
5	0xbcdaf36e	-0.026727404
6	0x3c9dfa2e	0.019284334
7	0x3c7328e8	0.014841296
8	0xba90ef37	-0.001105762
9	0x3bcc83f9	0.0062413183
10	0x3d0b4d56	0.0340093
11	0xbbb97e87	-0.005660835
12	0xbb93af33	-0.0045069694
13	0xbcd6fc2b	-0.02624329
14	0x3c146677	0.009057633
15	0x3d241437	0.04005834
16	0xbce1623e	-0.027512666
17	0xbb277192	-0.002554987
18	0x3c70744c	0.014676165
19	0xbbb9f2ff	-0.0056747193
20	0x3c7e5640	0.015523493
21	0xbc18f777	-0.009336344
22	0x3d074319	0.033022974
23	0xbc3efc26	-0.011656797
24	0xbbc3acf5	-0.005971546
25	0x3d124e33	0.035719108
26	0xbc361910	-0.011114374
27	0xbc5f2faa	-0.013622204
28	0xbac3df19	-0.0014943808
29	0x3be5d2a1	0.0070136343
30	0x3d1b453d	0.037907828
31	0x3d128e1a	0.03578005
32	0x3c98ffe1	0.0186767
33	0x3cc68e44	0.02423776
34	0xba7b002a	-0.00095749146
35	0x3d25cfb3	0.04048128
36	0x3ba12a9b	0.004918409
37	0x3ce01b00	0.027356625
38	0xba2e55ce	-0.0006650359
39	0xbc33c3c0	-0.010971963
40	0x3b8ba237	0.004261281
41	0xbc6cf779	-0.014463299
42	0xbcafaa61	-0.021443548
43	0x3c03c897	0.00804343
44	0xbc7653a6	-0.015034592
45	0xba1d16ae	-0.0005992454
46	0xbc37d36a	-0.011219839
47	0x3ceefa3c	0.029172055
48	0xbc101fd4	-0.008796651
49	0x3cdb411e	0.026764449
50	0xbb5abdaa	-0.0033377209
51	0xbc50f876	-0.01275455
52	0x3b6871f6	0.0035468317
53	0x3cc77232	0.024346445
54	0xbcc02938	-0.023457155
55	0xbc89a4b3	-0.016802168
56	0x3c94dbdb	0.018171242
57	0xbafab191	-0.0019126405
58	0xbcca8ce4	-0.024725385
59	0x3d25410b	0.040345233
60	0xbcdf9ccc	-0.027296446
61	0x3d1572c6	0.03648641
62	0xbc9557d0	-0.018230349
63	0xbca8e5d1	-0.020617398
64	0xbb8f36a9	-0.0043705297
65	0x3b61d806	0.0034461035
66	0xbc5a2616	-0.013314744
67	0xbc701a35	-0.014654686
68	0xbc6bbe40	-0.014388621
69	0xbbb7fad7	-0.0056146192
70	0x3c94288c	0.01808574
71	0x3c03a40f	0.00803472
72	0xbc49dd0f	-0.012320771
73	0xbb4127a4	-0.002947309
74	0xbcbb79da	-0.022885252
75	0x3ccaf952	0.024777088
76	0xbcb860cc	-0.022507094
77	0xbcda3dcb	-0.026640793
78	0x3d2aef05	0.041731853
79	0xbc5f85a0	-0.0136426985
80	0xbc124b3c	-0.00892907
81	0xbc0f3070	-0.008739576
82	0x3cfe33ea	0.031030614
83	0x3d03f3e2	0.032215007
84	0xbbf0a70f	-0.0073441337
85	0xbcc01135	-0.023445705
86	0x3c74fa60	0.014952272
87	0xbba064ff	-0.004894852
88	0x3d1ecf6f	0.038772043
89	0xbca41825	-0.020031044
90	0x3c329d67	0.010901785
91	0x3cdc2139	0.02687131
92	0x3bd70371	0.0065616895
93	0xbc939d81	-0.01801944
94	0x3b8cea41	0.004300386
95	0xbc8c2c9b	-0.017111113
96	0x3d0aa50a	0.0338488
97	0x3d1a53e7	0.03767767
98	0x3c95ed93	0.01830176
99	0x3cd5ba68	0.026089862
100	0xbbc475ae	-0.005995474
101	0x3cd32b30	0.02577743
102	0xbc0418e6	-0.008062577
103	0x3c53e9e4	0.012934182
104	0x3cdf5472	0.027261946
105	0x3d0ed063	0.0348667
106	0x3c7e2f80	0.015514255
107	0x3d23b44d	0.03996687
108	0x3bd67691	0.006544896
109	0x3c85c7e0	0.01633066
110	0x3c8e901b	0.0174027
111	0xbcd3622c	-0.025803648
112	0x3c9d9a90	0.01923874
113	0x3c8dcf47	0.017310752
114	0x3ce3bc7a	0.027799834
115	0xbc87ee88	-0.016593233
116	0xbbe1767f	-0.006880581
117	0xbccbf675	-0.024897793
118	0xbcb06f96	-0.021537583
119	0xbc92cf12	-0.017921004
120	0x3c907dc7	0.0176381
121	0x3c941a46	0.018078934
122	0x3bb5430b	0.005531674
123	0x3c2897d3	0.010290104
124	0xbc7e5cfe	-0.015525101
125	0x3c7d0537	0.015443138
126	0x3c852448	0.016252652
127	0xbc9ff248	-0.019524708
128	0xbca2d23a	-0.019875634
129	0x3a45839f	0.00075345667
130	0xbccdfde9	-0.025145488
131	0x3d1749c0	0.036935568
132	0x3d2c17b5	0.042014796
133	0x3cd0f696	0.025508206
134	0xbc12d042	-0.008960785
135	0x3ce65e82	0.028121237
136	0x3c771b0c	0.015082132
137	0xbcb5edaa	-0.022208054
138	0xbc0f7738	-0.008756451
139	0x3d0cdcf9	0.034390423
140	0x3d26cf03	0.040724766
141	0xbc523d43	-0.012831989
142	0xbc7657c2	-0.0150355715
143	0x3c1d038b	0.009583364
144	0xbc52801f	-0.012847929
145	0x3d1df985	0.03856804
146	0x3af0d670	0.0018374454
147	0x3bfd4ce2	0.0077301124
148	0x3c957e78	0.018248782
149	0xbb50ba3c	-0.0031849286
150	0xbac32496	-0.0014888223
151	0xbcd34434	-0.025789358
152	0x3ba4d042	0.005029709
153	0x39fd06d3	0.00048261005
154	0xbac0c850	-0.0014708135
155	0x3d194758	0.037421554
156	0x3cadd62b	0.021220287
157	0xbcd3af49	-0.025840418
158	0x3c764c95	0.015032907
159	0x3d10440d	0.03522115
160	0xbbcc3dd0	-0.0062329546
161	0x3bb94c18	0.005654823
162	0x3d0279cd	0.03185444
163	0xbcd39ef9	-0.02583264
164	0xbba1317b	-0.0049192286
165	0xbc9d647a	-0.01921295
166	0x39152d49	0.00014226617
167	0x3d04c6b2	0.032416053
168	0x3d0a4114	0.03375347
169	0x3c969ad3	0.018384373
170	0x3c22934b	0.009922813
171	0xbc960ba5	-0.0183161
172	0xbbc0b711	-0.005881198
173	0x3ca8240a	0.020524997
174	0xbd1e49e2	-0.03864468
175	0xbd046b60	-0.032328963
176	0xbbbfb605	-0.005850556
177	0xbd1a5543	-0.03767897
178	0xbcce1423	-0.025156086
179	0x3cd14b6b	0.025548657
180	0x3c8e050c	0.01733639
181	0xbb25f103	-0.0025320656
182	0xbce51908	-0.027966037
183	0xbc3df0a9	-0.011593022
184	0x3cdd1b80	0.026990652
185	0xbbe50d13	-0.006990084
186	0x3cc04178	0.023468718
187	0xbcbd6814	-0.023120917
188	0x3c572856	0.013132175
189	0x3cb5b12c	0.022179209
190	0x3cdd252a	0.02699526
191	0x3ca5b51b	0.02022796
192	0x3b491baf	0.0030686667
193	0x3cc8c1a0	0.02450639
194	0x3c8be7ef	0.017078368
195	0xbc91160c	-0.017710708
196	0xbb1d7be8	-0.0024030153
197	0x3ce9c876	0.02853797
198	0x3cfe17fe	0.0310173
199	0x3b628fb6	0.0034570522
200	0xbc3b5b42	-0.011435332
201	0x3d2b8ef9	0.041884396
202	0x3c0da5f1	0.008645521
203	0x3cdc29c1	0.026875379
204	0xbcac2784	-0.021014936
205	0xbd2cb107	-0.042161014
206	0x3b1a53fa	0.002354859
207	0xbcd84c9a	-0.026403714
208	0xbc93f956	-0.018063229
209	0x3cc6cd81	0.024267914
210	0x3cb11d22	0.021620337
211	0x3d08bcd1	0.033383194
212	0x3cf07e10	0.029356986
213	0xbc08ce04	-0.008349899
214	0x3c811c08	0.015760437
215	0xbcacb593	-0.021082675
216	0xbbfb6b40	-0.0076726973
217	0x3c984b70	0.018590659
218	0x3d0db7a1	0.03459895
219	0x3ccc623f	0.024949191
220	0xbcb09e19	-0.021559762
221	0xbc46e1f6	-0.012138834
222	0xbbd33595	-0.0064455965
223	0x3d2db683	0.042410385
224	0x3d09197e	0.033471577
225	0x3d30ba1d	0.04314624
226	0x3d095e99	0.03353748
227	0x3c2c816b	0.0105289025
228	0xbcb2ac70	-0.02181074
229	0x3abe6ec5	0.0014528862
230	0x3cd97e9d	0.026549632
231	0xbd0470ce	-0.03233414
232	0x3bba0e31	0.0056779613
233	0x3c3dc018	0.011581443
234	0x3ce3bf6b	0.027801236
235	0xbc37998c	-0.011206042
236	0x3cdb0928	0.026737764
237	0xbc02008b	-0.0079347
238	0x3cc92671	0.024554463
239	0xbbdf8ee4	-0.006822454
240	0xbd1ebe4e	-0.038755707
241	0xbced3fcd	-0.028961087
242	0xbcb3fb37	-0.021970375
243	0xbba84460	-0.005135104
244	0xbcb139ad	-0.021633947
245	0x3c30c651	0.01078947
246	0x3d127746	0.03575828
247	0xbcc6109b	-0.02417784
248	0x3d28ad38	0.04118082
249	0x3d2374cc	0.039906308
250	0xbc0e75c1	-0.008695067
251	0x3cff5712	0.031169448
252	0x3d2e2c85	0.042522926
253	0xbca9fac8	-0.020749465
254	0x3cb6ad0e	0.022299316
255	0x3ba85b81	0.0051378612

fc1.bias f4 [256]
0	0x3abd308e	0.0014434026
1	0xbd29ead0	-0.0414837
2	0x3cada3a0	0.021196187
3	0xbc8639f9	-0.016385065
4	0xbd2230d6	-0.039597355
5	0xbbf14e1c	-0.0073640477
6	0xbd27a9ef	-0.040933546
7	0x3c91c590	0.0177944
8	0xbcc8ad07	-0.024496568
9	0xbb06ceb6	-0.0020569987
10	0x3cb33389	0.02187516
11	0x3c13bb05	0.009016757
12	0xbdadccb1	-0.084863074
13	0xbd861659	-0.06547231
14	0xbd0d5108	-0.034501106
15	0xbd5e5264	-0.054277793
16	0xbce556cd	-0.027995491
17	0xbdb28a74	-0.08717814
18	0xbc49b63e	-0.012311516
19	0xbb3140fb	-0.0027046788
20	0xbd5966eb	-0.053076666
21	0xbc8a1f7e	-0.01686072
22	0xbca9e7b3	-0.020740366
23	0x3d662f1e	0.05619728
24	0x3c68194e	0.014166189
25	0x3cc072d6	0.023492258
26	0xbbc19d08	-0.005908612
27	0x3c97519d	0.018471533
28	0xbd202495	-0.039097387
29	0xbd2b430c	-0.041811988
30	0x3a431be0	0.00074428134
31	0xbd199fc9	-0.0375059
32	0xbd1e6643	-0.038671743
33	0xbc29e311	-0.010369078
34	0xbb7639a4	-0.0037570978
35	0xbd009d33	-0.031399917
36	0x3be69fe4	0.0070381034
37	0xbd08bf2a	-0.033385433
38	0x3c4805ca	0.0122084115
39	0xbcf348a4	-0.029697724
40	0xbc2c88c2	-0.0105306525
41	0xbcaa12fc	-0.020761006
42	0xbd163168	-0.03666821
43	0xbda0933d	-0.078405835
44	0xbd00dc7b	-0.031460267
45	0xbb2ad22c	-0.0026065214
46	0xbcb6afc3	-0.022300607
47	0x3afa03b7	0.0019074593
48	0xbcd4c0ee	-0.025970902
49	0xbd431742	-0.047629602
50	0x3c2de826	0.0106144305
51	0x3c8f6920	0.017506182
52	0x3c93ea76	0.018056136
53	0x3be354db	0.006937606
54	0xbd02a914	-0.031899527
55	0xbd9a2ea9	-0.07528431
56	0x3cca5eaf	0.024703352
57	0x3c72b877	0.014814488
58	0xbcf01997	-0.029309077
59	0xbd60f277	-0.054918732
60	0x3ba78cae	0.005113206
61	0x3ae9eff7	0.0017848004
62	0xbcc15dc2	-0.023604278
63	0x3c0cdac2	0.008597078
64	0x3c84f93a	0.016232122
65	0xbd0ab4fd	-0.03386401
66	0x3a40d8f5	0.0007356548
67	0xbd1795f5	-0.037008245
68	0x3c13f719	0.009031081
69	0xbc275fa8	-0.010215677
70	0xbc79dc50	-0.0152502805
71	0xbc8fb6f2	-0.01754329
72	0x3ca2b366	0.019860934
73	0xbba3fff4	-0.005004877
74	0x3ca950c6	0.020668399
75	0xbcb6a7db	-0.022296837
76	0xbd1d0381	-0.03833342
77	0x3cb395fe	0.021922108
78	0xbd21405e	-0.039368026
79	0xbd1ea805	-0.038734455
80	0x3b39249f	0.0028250588
81	0xbcf993d6	-0.030466001
82	0x3c8872df	0.016656337
83	0xbcd1cc75	-0.025610188
84	0xbd0d3bad	-0.03448074
85	0x3cef04fe	0.029177185
86	0xbc63c331	-0.013901518
87	0x3cde0c76	0.027105551
88	0xbcdd8f10	-0.027045757
89	0xbd4b9fa1	-0.04971278
90	0xbd10a059	-0.03530917
91	0xbc06f029	-0.00823597
92	0xbd3f8290	-0.046755373
93	0xbbf30e60	-0.007417485
94	0xbd0b7682	-0.034048565
95	0xbd5b703b	-0.05357383
96	0x3c8c72fd	0.017144674
97	0xbb8feea0	-0.00439246
98	0x3ca4fadb	0.020139148
99	0xbcb9b8e3	-0.022671169
100	0xbd1762a1	-0.036959294
101	0xbce71eb5	-0.028212884
102	0xbcaa2ca3	-0.020773238
103	0xbc221743	-0.009893241
104	0x3cbdddf7	0.02317713
105	0xbc138bcd	-0.009005499
106	0xbd314717	-0.043280687
107	0x3c8e0b9d	0.017339522
108	0x3d1712fc	0.03688334
109	0x3ceded17	0.029043717
110	0xbab105f7	-0.0013505806
111	0xbb44a184	-0.0030003497
112	0xbc523398	-0.012829684
113	0x3c9ed4d6	0.019388597
114	0xbd24b98b	-0.04021601
115	0x3c9c6c33	0.019094562
116	0xbd151d25	-0.036404748
117	0xbd659ce7	-0.056057837
118	0xbbcc931c	-0.0062431227
119	0x3bbea7a0	0.0058183223
120	0xbd83ea82	-0.06441213
121	0xbba307a0	-0.004975274
122	0x3cb64b79	0.022252785
123	0xbd0b5bab	-0.03402297
124	0x3ce0bb39	0.027433025
125	0xbd8d3797	-0.068953685
126	0xbd0b3558	-0.03398642
127	0xbbdd9d1f	-0.006763115
128	0xbcfff2d7	-0.031243725
129	0x3c27e1ad	0.010246676
130	0x3bf72d52	0.0075432444
131	0x3c54e9c0	0.0129951835
132	0xbd2304d9	-0.039799545
133	0x3cbbbfdb	0.022918632
134	0x3cd248fc	0.025669567
135	0x3ca7235c	0.020402603
136	0x3c76cf39	0.015064054
137	0x3c5e20b0	0.013557598
138	0x3cbec12b	0.023285469
139	0x3c0df48b	0.008664261
140	0xba0c05d1	-0.0005341443
141	0xbcfd301b	-0.030906728
142	0xbc9eeaa9	-0.019399004
143	0x3cb5b709	0.022182005
144	0xbd0ff2d7	-0.0351437
145	0xbda424eb	-0.08014854
146	0xbd132101	-0.035920147
147	0xba985653	-0.0011622406
148	0x3cfa2d4b	0.030539175
149	0x3ce4f6a3	0.027949637
150	0xbc754a87	-0.014971382
151	0xbb9606fb	-0.004578469
152	0x3c295dcf	0.010337307
153	0xbc98c774	-0.018649794
154	0xbd29f603	-0.04149438
155	0x3cc4f83c	0.024044149
156	0xbcd7e799	-0.026355552
157	0xbd6257bf	-0.055259462
158	0xbcad794d	-0.021176005
159	0x3cc43d24	0.023954935
160	0xbd9c8c4f	-0.07643949
161	0x3c2861c6	0.010277217
162	0xbd895cfe	-0.0670719
163	0xbd737aa8	-0.059443146
164	0x3ce54d5e	0.027990993
165	0xbc919865	-0.017772863
166	0xbd93001c	-0.07177755
167	0x3d1abf57	0.037780132
168	0xbd01ceca	-0.03169135
169	0xbd16fe10	-0.036863387
170	0xbbcbdca2	-0.00622137
171	0x3c3710cb	0.011173437
172	0xbd676b96	-0.056499086
173	0xbcd3d324	-0.025857516
174	0xbd12b622	-0.035818227
175	0xbd7af7f5	-0.061271627
176	0xbc6b8918	-0.014375947
177	0x3ce6ecc9	0.02818908
178	0x3ced0571	0.028933259
179	0x3ce7a9e2	0.028279249
180	0xbd260359	-0.040530536
181	0x3c9da855	0.019245306
182	0xbcce6d4d	-0.025198603
183	0x3b75bd3e	0.003749683
184	0x3cf8bb91	0.030362876
185	0xbd3d1c78	-0.046169728
186	0x3c9d3ac1	0.019193055
187	0xbd05de14	-0.032682493
188	0xbc347164	-0.011013363
189	0xbdb2c908	-0.0872975
190	0xbc97ec01	-0.018545153
191	0x3cd68ad7	0.02618925
192	0xbd8871fb	-0.06662365
193	0xbd749742	-0.059714563
194	0x3c1fe6b8	0.0097595975
195	0xbc00e688	-0.007867463
196	0x3d94fb8f	0.072745435
197	0xbd4a509f	-0.049393293
198	0xbb498f46	-0.0030755564
199	0x3ccf5dfe	0.025313374
200	0x3bb0f94e	0.005400813
201	0xbab0dd8a	-0.0013493758
202	0x3cf026ce	0.029315379
203	0xbc85893f	-0.016300796
204	0xbba0fe92	-0.0049131596
205	0xbb88640c	-0.004162317
206	0x3be672db	0.007032735
207	0x3d317a64	0.04332961
208	0xbd3430d4	-0.04399188
209	0xbcc34c1e	-0.023840006
210	0xbcf70087	-0.030151619
211	0x3c607b3f	0.013701259
212	0x3cb66722	0.022265974
213	0xbd26aad7	-0.04069027
214	0xbc1e6760	-0.009668201
215	0x3c640235	0.013916542
216	0xbc93ca91	-0.018040927
217	0xbbd07a09	-0.006362204
218	0xbcd08209	-0.02545263
219	0xbd6bc55e	-0.05756127
220	0xbc754a5a	-0.01497134
221	0x3afd722f	0.0019336398
222	0xbbea45c6	-0.007149431
223	0xbc487020	-0.012233764
224	0xbcc7ded9	-0.024398254
225	0xbc203a12	-0.00977947
226	0xbd268eda	-0.040663578
227	0x3a00cc39	0.0004913244
228	0xbc288ecf	-0.0102879545
229	0xbcf48129	-0.029846745
230	0xbb950d5d	-0.004548712
231	0xbcc76240	-0.024338841
232	0xbcd71314	-0.026254214
233	0xbcea9e24	-0.02863986
234	0xbcd716b5	-0.026255945
235	0xbd79177c	-0.060813412
236	0xb97da04f	-0.0002418768
237	0xbd0e9cdb	-0.034817558
238	0xbd16c213	-0.036806177
239	0xbcc4c9af	-0.024021951
240	0xbcbbf24f	-0.02294269
241	0xbd2a8eda	-0.04164014
242	0xbaad5e31	-0.0013226924
243	0xbc71a1da	-0.014748061
244	0xbc6a3320	-0.014294416
245	0xbd6f97f0	-0.05849451
246	0x3cc52cf3	0.024069285
247	0xbca9782e	-0.020687189
248	0xbb900fcd	-0.004396415
249	0xbd5e101a	-0.054214574
250	0xbcf1b30b	-0.02950432
251	0x3a84dd7c	0.0010136808
252	0x3c4f3947	0.012647933
253	0x3cadb703	0.02120543
254	0xbc9be37d	-0.019029373
255	0xbd3bd6b0	-0.04585904

fc2.weight f4 [128, 256]
0	0xbd475934	-0.048669055
1	0x3cd7064b	0.026248118
2	0x3d0f11ec	0.0349292
3	0xba91edad	-0.0011133455
4	0xbd47af71	-0.0487513
5	0xbcdd1b99	-0.026990699
6	0x3c805cf4	0.015669324
7	0x3d0fa8da	0.03507314
8	0xbcb1a4c3	-0.02168501
9	0x3a90679e	0.0011017208
10	0x3d677bfe	0.056514733
11	0x3d80f546	0.06296782
12	0x3d0b2f71	0.03398079
13	0x3cb59e06	0.022170078
14	0x3cbd0658	0.023074314
15	0x3d816264	0.06317595
16	0xbe0cce86	-0.13750657
17	0xbc28e6d5	-0.010308941
18	0x3d293823	0.0413133
19	0x3d287893	0.041130614
20	0xbdfa67aa	-0.122268036
21	0x3d2cc83e	0.042183153
22	0x3c02131e	0.007939128
23	0xbe30aeb7	-0.17254148
24	0x3d48de92	0.049040385
25	0x3d396f97	0.045272436
26	0xbd0b2fa2	-0.033980973
27	0x3d206bfc	0.039165482
28	0x3d18f9f8	0.037347764
29	0x3c9486d1	0.018130692
30	0x3c15a649	0.009133884
31	0xbcf49626	-0.029856753
32	0xbe70927e	-0.23493382
33	0xbd11fa85	-0.035639305
34	0xbb958ec0	-0.0045641363
35	0xbdce3ea9	-0.10070545
36	0xbdbdb40b	-0.09262856
37	0x3d1aee6c	0.037825033
38	0xbd1de0bb	-0.038544398
39	0x39d67108	0.00040901476
40	0xbd3025eb	-0.04300491
41	0x3d424e0e	0.04743772
42	0xbe25411f	-0.16138123
43	0x3d93d895	0.07219044
44	0x3dca9550	0.0989176
45	0x3d092d14	0.033490255
46	0xbc23a4c9	-0.009988018
47	0xbdff6dd9	-0.12472124
48	0xbadc4c00	-0.0016807318
49	0xbd824998	-0.06361693
50	0xbb0eb993	-0.0021778091
51	0xbd272281	-0.04080439
52	0xbca06979	-0.019581543
53	0x3d669540	0.05629468
54	0xbb755fda	-0.0037441165
55	0x3c421225	0.011845146
56	0xba652eec	-0.00087426486
57	0xbcf868d8	-0.03032343
58	0x3dc21f03	0.09478571
59	0xbcc537ae	-0.024074402
60	0x3d1fea74	0.03904195
61	0xbd07f193	-0.033189368
62	0xbcb77065	-0.022392461
63	0xbda466c0	-0.080274105
64	0x3cf590bf	0.029976247
65	0xbd514ba4	-0.051097527
66	0xbcca6775	-0.024707535
67	0x3cd33f90	0.025787145
68	0x3c748f03	0.014926675
69	0x3d56c2f8	0.05243203
70	0xbc12202b	-0.008918802
71	0x3c633470	0.013867483
72	0xbdd18432	-0.102302924
73	0xbd262d7e	-0.04057073
74	0x3ccb0232	0.02478132
75	0xbd3ec81f	-0.04657757
76	0x3cdf495b	0.027256658
77	0x3d629158	0.05531439
78	0x3d5465b2	0.051854797
79	0x3d3972a0	0.04527533
80	0x3d096eaf	0.03355282
81	0xbb844278	-0.004036244
82	0x3d165d1e	0.036709897
83	0xbcc98540	-0.024599671
84	0x3d5deb88	0.0541797
85	0xbdd29b05	-0.10283474
86	0x3dd0a143	0.10187008
87	0xbd2ff6f5	-0.042960126
88	0xbd0068b1	-0.03134984
89	0x3d45e0a1	0.048309926
90	0xbcb5d221	-0.022194924
91	0xbd7afe74	-0.06127782
92	0x3e1f25dc	0.15541786
93	0xbd89c69c	-0.06727335
94	0x3c2fd219	0.0107312435
95	0xbdd2b30e	-0.10288058
96	0xbd6ade4e	-0.057340913
97	0x3d9dd2d0	0.07706225
98	0x3d469168	0.048478514
99	0xbe6e10b8	-0.23248565
100	0xbc9b68d7	-0.01897089
101	0xbdb3c2a8	-0.08777362
102	0x3c81cf69	0.015845971
103	0x3d204a88	0.03913358
104	0xba8b356a	-0.0010620777
105	0xbda460ae	-0.08026253
106	0xbe3c72ce	-0.1840317
107	0xbcaf3129	-0.021385746
108	0xbe1f168c	-0.15535945
109	0xbd0830eb	-0.033249777
110	0xba081580	-0.0005191192
111	0x3d465469	0.048420344
112	0x3cfecace	0.031102564
113	0xbd539cbd	-0.05166315
114	0xbd74f4c3	-0.059803735
115	0xbc6635fe	-0.014050959
116	0x3d065103	0.032792103
117	0x3d7536e7	0.059866812
118	0x3d1f00b0	0.038819015
119	0xbe104d56	-0.14092001
120	0xbd0b62ca	-0.03402976
121	0xbdc1053c	-0.094248265
122	0x3da11235	0.07864801
123	0xbd11a8d9	-0.035561416
124	0x3c5323d0	0.012886956
125	0x3d8dbcd5	0.069207825
126	0xbc850d1c	-0.016241603
127	0xbcaf42e8	-0.021394208
128	0x3d606cfb	0.054791432
129	0x3d00fe73	0.03149266
130	0x3d5ad344	0.053424135
131	0x3d0b11ec	0.03395264
132	0x3c9a0fb7	0.018806322
133	0xbc00add0	-0.00785394
134	0x3d169759	0.03676543
135	0xbd4f618f	-0.05063015
136	0x3d0bccd9	0.034130905
137	0xbd4c6547	-0.049901273
138	0x3c1daab3	0.009623217
139	0xbeae22f1	-0.34011033
140	0x3d0120b5	0.031525332
141	0xbd7e0978	-0.06202075
142	0xbc213120	-0.0098383725
143	0x3cd4f176	0.025994044
144	0x3d3e8c54	0.046520546
145	0x3d9d0510	0.07666981
146	0xbd2a4308	-0.041567832
147	0xbd213f62	-0.039367087
148	0x3d6ed90c	0.05831246
149	0xbd449d02	-0.048001297
150	0xbd0bd7a8	-0.034141213
151	0xbd6757f8	-0.056480378
152	0xbc41e4d6	-0.011834344
153	0xbd3269bf	-0.04355788
154	0xbd6a2213	-0.057161402
155	0xbe02d7e3	-0.12777667
156	0xbcc2f180	-0.023796797
157	0xbe1deffc	-0.15423578
158	0x3ce39490	0.027780801
159	0x3be56236	0.007000233
160	0xbd264573	-0.040593576
161	0x3d597abc	0.053095564
162	0xbcca18b6	-0.024669986
163	0xbdb48a0f	-0.08815395
164	0xbcd1d857	-0.025615854
165	0x3d4ac7f7	0.049507108
166	0xbe06c088	-0.13159382
167	0xbcf34de5	-0.029700229
168	0x3cc79fb6	0.024368148
169	0xbb97c4c9	-0.004631613
170	0xbce88288	-0.028382555
171	0xbe390723	-0.18069129
172	0x3c82a120	0.015945971
173	0x3d34d0dd	0.0441445
174	0xbd396bb1	-0.04526872
175	0xbdd247fe	-0.10267638
176	0xbe3e5ee8	-0.18590891
177	0x3d07809d	0.03308164
178	0xbd1be5db	-0.038061004
179	0x3d3a5e12	0.04549987
180	0xbd0f7a26	-0.0350286
181	0x3bf19090	0.0073719695
182	0xbd7bdb10	-0.06148821
183	0xbd793984	-0.060845867
184	0xbc861603	-0.016367918
185	0x3dbdc881	0.09266759
186	0x3c8652d0	0.01639691
187	0x3c187db0	0.00930731
188	0xbd15edd2	-0.036603756
189	0x3b71b6cb	0.0036882635
190	0xbc2a0cf4	-0.010379065
191	0x3c59327e	0.013256667
192	0x3dd852c8	0.10562664
193	0xbb5c89d0	-0.0033651479
194	0xbe85e726	-0.26152915
195	0x3d40cfe6	0.047073267
196	0xbd838652	-0.06422104
197	0xbc3dc13f	-0.011581718
198	0xbc65545f	-0.013997166
199	0xbcb6919e	-0.022286233
200	0x3cbfed7c	0.023428671
201	0x3d8507e8	0.064956486
202	0x3c760893	0.015016693
203	0xbc995f85	-0.018722305
204	0x3bffeadb	0.0078099794
205	0xbd27400a	-0.040832557
206	0xbbcbc1f0	-0.0062181875
207	0xbd9fd3a9	-0.07804043
208	0xbd3576ce	-0.044302754
209	0xbc4f47ae	-0.012651367
210	0xbd801032	-0.06253089
211	0x3a867d00	0.0010260642
212	0x3d28c9e7	0.041208174
213	0xbc2eee38	-0.010676913
214	0x3bce1f34	0.006290341
215	0x3a910b80	0.0011066049
216	0xbc73dc8e	-0.014884127
217	0xbc5c7bb1	-0.013457225
218	0x3d132e84	0.035933033
219	0xbd29e1a8	-0.04147497
220	0x3d34ab7f	0.044108864
221	0x3d22a29d	0.03970586
222	0xbc10a7b8	-0.00882905
223	0xbc515b93	-0.012778181
224	0xbd896a74	-0.067097574
225	0xbd123f07	-0.03570464
226	0x3d3238c5	0.04351117
227	0x3c8d7f5a	0.01727264
228	0x3c922bbe	0.017843124
229	0x390e7b79	0.00013588172
230	0x3cad11d8	0.021126673
231	0x3d3e62ff	0.04648113
232	0xbdd6e86d	-0.104935504
233	0x3d0671de	0.032823436
234	0xbd5c55ce	-0.053792767
235	0x3d054ab9	0.032541964
236	0x3b61c9ec	0.003445263
237	0xbd8147ee	-0.063125476
238	0x3b94804d	0.004531896
239	0xbe0945c4	-0.1340552
240	0xbd013500	-0.031544685
241	0x3d3e03c6	0.046390317
242	0xbd52004d	-0.051269818
243	0xbd1bb682	-0.03801585
244	0x3c4f68ab	0.012659232
245	0x3a5cbbb9	0.0008420307
246	0x3d3e12b9	0.046404574
247	0xbddc60b5	-0.10760633
248	0xbc4239a7	-0.011854566
249	0xbde497fa	-0.111618
250	0xbde01c24	-0.109428674
251	0x3d2fe4f2	0.04294295
252	0x3da7b621	0.08189035
253	0x3c45e688	0.012078889
254	0x3d32138a	0.043475665
255	0x3ccaaa29	0.024739342

fc2.bias f4 [128]
0	0x3e8ed806	0.27899188
1	0x3e24c82b	0.16091983
2	0x3daffd8a	0.085932806
3	0xbce71eb4	-0.028212883
4	0x3e1e9fa8	0.15490592
5	0x3e9b32eb	0.30312285
6	0x3be2998a	0.006915276
7	0x3d0b2bbb	0.03397725
8	0x3d40ffb4	0.047118858
9	0x3d7fe2cd	0.062472153
10	0x3ec65999	0.38740233
11	0x3e9acf3a	0.30236226
12	0x3e2db0e1	0.16962005
13	0xbe1b8566	-0.15187606
14	0xbe592877	-0.21206842
15	0x3ef5ce04	0.4800874
16	0x3f26a00b	0.65087956
17	0x3d2177ae	0.039420776
18	0x3dfb07c5	0.12257341
19	0x3e5b0d52	0.213918
20	0x3e7aa9a8	0.24478781
21	0x3d11f106	0.03563025
22	0x3f1044fc	0.5635526
23	0x3e9fb278	0.31190848
24	0x3e426fd4	0.18987972
25	0x3ea38048	0.31933808
26	0x3eaceb09	0.33773068
27	0x3dba6b5e	0.0910251
28	0x3e382d19	0.17985953
29	0x3eaf6038	0.34253097
30	0xbe7bf3ce	-0.24604723
31	0xbd0c2180	-0.034211636
32	0x3cc32488	0.02382113
33	0x3e1994a8	0.14998114
34	0xbdf812d5	-0.12112967
35	0x3e5358e3	0.20639376
36	0x3d432433	0.047641944
37	0x3ed46928	0.41486478
38	0xbd544542	-0.051823862
39	0x3ebe1333	0.37124023
40	0x3de317e7	0.110885434
41	0xbb2d2940	-0.0026422292
42	0x3bb21fca	0.0054359185
43	0x3ecaa503	0.3957902
44	0x3df6f094	0.120576054
45	0x3f31d248	0.6946149
46	0xbe56729a	-0.20942155
47	0x3e2c3e9d	0.1682076
48	0xbdde4895	-0.10853688
49	0x3e8485f6	0.25883454
50	0xbe6f8ada	-0.23392811
51	0x3d908e5c	0.07058403
52	0x3ed9002c	0.42382944
53	0x3eed64c2	0.46365935
54	0x3ea1dac0	0.31612206
55	0x3e129cdb	0.14317648
56	0xbddc80b7	-0.10766738
57	0x3eb5daf0	0.355186
58	0x3ee3211d	0.443612
59	0xbee0804e	-0.4384789
60	0x3e9193fa	0.2843321
61	0x3eaedcf3	0.34152946
62	0x3e00e5f6	0.12587723
63	0x3dba1508	0.09086043
64	0x3e523dc5	0.20531376
65	0x3cccc4ac	0.024996124
66	0x3e63aa79	0.22232999
67	0xbe0c4931	-0.13699795
68	0x3e705fcc	0.23474044
69	0x3e319506	0.17342004
70	0x3e06b6b0	0.13155627
71	0x3e9b0320	0.30275822
72	0x3f111467	0.56671757
73	0x3e387520	0.1801343
74	0x3e5a0ebe	0.21294686
75	0x3e90c187	0.2827265
76	0x3e3be21a	0.1834797
77	0x3eb4908e	0.35266536
78	0x3dbcbba1	0.09215475
79	0xbd09eed0	-0.033675015
80	0x3f1601ac	0.585963
81	0x3c974866	0.01846714
82	0xbd270be9	-0.040782843
83	0x3ebaa181	0.36451343
84	0x3e2f8320	0.17139864
85	0xbdcf0ac6	-0.10109477
86	0x3e0f103f	0.13971041
87	0xbd9ae7ee	-0.07563768
88	0x3e9ad21a	0.3023842
89	0xbdda8191	-0.10669244
90	0xbd253153	-0.040330242
91	0xbdb75d7f	-0.0895338
92	0x3dc5f7f1	0.09666432
93	0x3ec6e148	0.3884375
94	0x3ea3729d	0.3192338
95	0xbd8a54cf	-0.06754457
96	0x3d5c4eb7	0.053786006
97	0x3de9daae	0.11418663
98	0x3dc4221a	0.09576817
99	0x3eb1ca06	0.34724444
100	0x3e924a3f	0.2857227
101	0xbe17361f	-0.1476674
102	0x3b519127	0.0031977387
103	0xbe3c432d	-0.18385
104	0x3e822593	0.25419292
105	0x3ec0e7a4	0.37676728
106	0x3e3560c4	0.17712694
107	0x3e156803	0.14590459
108	0x3e5ca462	0.21547082
109	0x3ee58623	0.448289
110	0x3dce50c6	0.10074
111	0x3ee0ad21	0.43882087
112	0x3e786edd	0.24261041
113	0xbbcc32e2	-0.0062316516
114	0x3e8a416e	0.27003044
115	0x3d4ee003	0.050506603
116	0x3e3694f0	0.17830253
117	0xbc95ee92	-0.018302236
118	0xbe862a94	-0.2620436
119	0xbd0adb98	-0.033900827
120	0xbe440128	-0.19141066
121	0x3ea870fe	0.32898706
122	0x3daa8ea9	0.083279915
123	0xbcf3d658	-0.029765293
124	0xbe500676	-0.20314965
125	0xbd40ff6f	-0.0471186
126	0x3e3b2f30	0.1827972
127	0x3dfb9f2a	0.122862175

fc3.weight f4 [10, 128]
0	0xbdd1b202	-0.102390304
1	0x3dd23b2b	0.10265192
2	0x3d86f857	0.06590336
3	0x3cbc3340	0.022973657
4	0x3d1c36ba	0.03813813
5	0xbdc09c1a	-0.09404774
6	0xbe26a4c4	-0.1627379
7	0xbc0d75a9	-0.008634009
8	0xbdbbb787	-0.091658644
9	0x3df3d011	0.1190492
10	0x3d622b63	0.055217158
11	0xbd9713e7	-0.07376843
12	0xbe5a9aac	-0.21348065
13	0x3d0c3f32	0.034239955
14	0xbdda8cfc	-0.10671422
15	0x3d21924a	0.039446153
16	0xbe0892cb	-0.13337247
17	0xbdef7bac	-0.116935104
18	0x3ba46d5c	0.0050179195
19	0x3d8c6ae1	0.06856323
20	0xbe93b3bc	-0.28848064
21	0x3de054aa	0.109536484
22	0x3daaf624	0.08347729
23	0xbd8da8f0	-0.06916988
24	0xbe6ac74f	-0.22927593
25	0xbdd7ab75	-0.1053075
26	0xbdcc3420	-0.099708796
27	0xbd0a91f6	-0.033830605
28	0x3d28f48c	0.041248843
29	0xbe71a62d	-0.23598547
30	0xbe2f4043	-0.17114358
31	0x3d4ede03	0.050504696
32	0x3d00c8a0	0.03144133
33	0x3dd920bc	0.10601947
34	0xbdf68b3c	-0.120382756
35	0xbdd370a7	-0.10324221
36	0xbd849c47	-0.0647512
37	0x3d02d6d4	0.031943157
38	0x3cec852d	0.028872097
39	0xbe54e786	-0.20791444
40	0x3d78be8f	0.060728606
41	0x3c2f6743	0.010705772
42	0xbdcab4d9	-0.09897775
43	0x3c76a36f	0.015053614
44	0x3d7eeb30	0.06223601
45	0xbe0257f4	-0.12728864
46	0x3d9ce35c	0.07660553
47	0xbd9ced3a	-0.07662435
48	0x3d65e45a	0.056125976
49	0xbe263ad0	-0.16233373
50	0xbe33133b	-0.17487805
51	0xbe448c81	-0.19194223
52	0x3b816527	0.003948826
53	0xbe3c911d	-0.18414731
54	0xbe297cd1	-0.1655152
55	0x3e5c6ce6	0.21525916
56	0x3e02b8d2	0.12765816
57	0x3d9a6cfa	0.07540317
58	0x3d315653	0.043295216
59	0xbc3b3cfa	-0.011428112
60	0x3e20fc64	0.1572128
61	0xbd7be772	-0.06150002
62	0xbd8365d1	-0.06415904
63	0x3e577828	0.2104193
64	0xbcc99eb0	-0.0246118
65	0x3d43a2c5	0.04776265
66	0x3dc004b9	0.09375901
67	0xbdb16175	-0.086611666
68	0xbe507379	-0.2035655
69	0x3cba7f84	0.022765882
70	0x3dce02b2	0.10059108
71	0x3dab1cf5	0.083551325
72	0xbe0bc704	-0.13650137
73	0x3d85653c	0.065134495
74	0xbd25fd6c	-0.040524885
75	0xbea83920	-0.32856083
76	0xbe1c6b8c	-0.15275401
77	0x3d55bb26	0.05218043
78	0xbd802e2e	-0.06258808
79	0xbda87241	-0.08224917
80	0x3b73fe07	0.003723027
81	0x3d63d9ac	0.05562751
82	0x3da05bac	0.07829985
83	0x3dd9f917	0.10643213
84	0xbe52dd84	-0.20592314
85	0xbdc5a168	-0.096499264
86	0xbdff0234	-0.12451592
87	0x3d84a66d	0.06477056
88	0x3cec3cbb	0.028837552
89	0x3d5907c4	0.05298592
90	0x3bbbc2dc	0.005730016
91	0x3dbf72ef	0.09348094
92	0x3d97400b	0.07385262
93	0x3ddcc4a3	0.10779693
94	0xbde4a02f	-0.11163365
95	0xbd827f09	-0.06371886
96	0xbd8742c4	-0.066045314
97	0xbe003db4	-0.12523538
98	0xbd632058	-0.055450767
99	0xbec0fe49	-0.37694004
100	0xbe4efad0	-0.20212865
101	0x3da83f10	0.08215153
102	0x3e01e9b0	0.12686801
103	0xbdc63a68	-0.09679109
104	0xbd89bd9d	-0.06725619
105	0xbda67bbd	-0.0812907
106	0xbd8988d0	-0.06715548
107	0x3d3c6357	0.045993175
108	0xbe42e94d	-0.1903431
109	0xbc50fa9e	-0.012755064
110	0x3df989cf	0.12184488
111	0xbda8fde3	-0.0825155
112	0xbe11d2b5	-0.14240535
113	0x3d8a2879	0.06746001
114	0xbe11483e	-0.14187714
115	0x3d98ad16	0.074548885
116	0x3e2a86f7	0.16653048
117	0xbd2069ca	-0.03916339
118	0xbe23b387	-0.15986453
119	0xbd8e82d7	-0.069585495
120	0x3ccefea2	0.025267903
121	0x3dd70569	0.10499079
122	0x3dfbdcf3	0.12298002
123	0xbdbec75b	-0.09315368
124	0x3d833abf	0.06407689
125	0xbd693eaa	-0.056944527
126	0xbe05c11e	-0.1306195
127	0x3e0b993c	0.13632673
128	0xbe18cf32	-0.14922789
129	0xbe3d896b	-0.18509452
130	0x3d2f9d09	0.04287437
131	0xbd3bd8ad	-0.045860935
132	0x3e4cdd3d	0.2000627
133	0xbea8f514	-0.3299948
134	0x3d756083	0.059906494
135	0x3d98c75b	0.07459899
136	0x3c9ca91f	0.019123612
137	0xbe146d1c	-0.14494747
138	0xbdd24f57	-0.10269039
139	0xbe673980	-0.22580528
140	0x3d960bc4	0.07326463
141	0x3d3057f3	0.043052625
142	0x3dae0799	0.08497543
143	0xbea14e5a	-0.3150509
144	0x3e28a914	0.16470748
145	0x3e05d768	0.13070452
146	0xbe5836fb	-0.21114723
147	0x3d96c84b	0.073624216
148	0xbe27b36b	-0.16377036
149	0xbd14d183	-0.03633262
150	0xbadf27e7	-0.0017025442
151	0x3dd3ff0d	0.103513815
152	0xbe5e1dab	-0.21691005
153	0x3da30583	0.07960036
154	0xbe77c325	-0.24195535
155	0x3d988240	0.07446718
156	0xbe7745c7	-0.24147712
157	0x3e058cd0	0.13041997
158	0x3c9970a5	0.01873047
159	0xbde04eb8	-0.109525144
160	0x3e0ade16	0.13561282
161	0xbd20b6a0	-0.039236665
162	0xbe034c35	-0.1282204
163	0x3d1f484d	0.03888731
164	0x3d9bf7a8	0.07615596
165	0x3ddadb97	0.10686415
166	0xbd5a0a47	-0.053232457
167	0x3d8dcc9d	0.069237925
168	0xbbca9efe	-0.006183504
169	0x3c3500e9	0.01104758
170	0xbe599d20	-0.21251345
171	0x3d0619c3	0.032739412
172	0x3d9d4262	0.07678677
173	0x3e1709e3	0.14749865
174	0xbe01f19e	-0.12689826
175	0x3d2bf526	0.04198184
176	0x3ce3f010	0.027824432
177	0x3ddcb069	0.10775835
178	0x3d86b083	0.06576636
179	0x3d0d9e2b	0.03457467
180	0x3dc2091d	0.094743945
181	0x3ddacb9f	0.10683369
182	0x3dea2af0	0.11433971
183	0x3d2d63c1	0.04233146
184	0xbe36228d	-0.17786618
185	0x3e03e765	0.12881239
186	0xbe6d2279	-0.23157682
187	0x3c45770a	0.012052307
188	0xbed6ac6e	-0.41928428
189	0x3e257ee1	0.16161682
190	0xbd85d99b	-0.065356456
191	0xbdcf5e48	-0.101254046
192	0xbeaf33c4	-0.34219182
193	0xbd833ae0	-0.06407714
194	0x3e3714ac	0.1787898
195	0x3d952c9f	0.072839014
196	0xbe5c3e36	-0.21508107
197	0xbe960f7f	-0.29308698
198	0xba52591f	-0.00080241443
199	0xbeb28b40	-0.34871864
200	0xbe16a06e	-0.14709637
201	0x3db41b3e	0.087942585
202	0xbd9d267d	-0.07673357
203	0x3b474f90	0.0030412413
204	0xbde0208b	-0.10943707
205	0xbe17ca13	-0.14823179
206	0x3d02e807	0.03195956
207	0x3dade58d	0.08491049
208	0x3b3d2b55	0.002886494
209	0xbe1c670d	-0.15273686
210	0xbd16235a	-0.036654808
211	0x3e570010	0.20996118
212	0x3d7464da	0.059666492
213	0x3e0439c8	0.12912667
214	0xbe20e116	-0.15710863
215	0xbe206115	-0.15662034
216	0x3db4f0af	0.08834969
217	0xbd3c05fe	-0.045904152
218	0xbe5a7912	-0.21335247
219	0xbe6df571	-0.2323816
220	0xbe8df50b	-0.27726015
221	0x3e300d07	0.1719247
222	0xbe84c71d	-0.2593316
223	0xbc83330c	-0.016015552
224	0xbb5169ea	-0.0031954
225	0x3d5cccc2	0.05390621
226	0xbe8d653f	-0.27616307
227	0x3d626d77	0.055280175
228	0x3c925495	0.017862597
229	0xbe1ad545	-0.15120418
230	0xbe2e5277	-0.17023645
231	0x3d67a476	0.056553327
232	0xbd89e73d	-0.06733558
233	0x3d928c04	0.07155612
234	0xbe12a442	-0.14320472
235	0xbe628425	-0.22120722
236	0x3d81c249	0.06335885
237	0x3de783c5	0.1130443
238	0xbe54e9e1	-0.20792343
239	0x3de4546e	0.11148916
240	0x3d5c3295	0.053759176
241	0x3dab7235	0.08371393
242	0x3d1acc57	0.03779253
243	0x3d393775	0.045218904
244	0x3db6d476	0.089272425
245	0x3e1a0edc	0.15044731
246	0x3db33cf4	0.0875186
247	0x3df10bd5	0.11769835
248	0xbd8ad2fc	-0.06778523
249	0x3e2eda32	0.17075422
250	0xbe5f6fdd	-0.21820016
251	0xbc59c9ba	-0.013292724
252	0x3dcfd543	0.10148098
253	0xbe8bf5c5	-0.27335945
254	0x3e33f9f8	0.17575824
255	0xbdc81cce	-0.09771119

fc3.bias f4 [10]
0	0xbd49e88c	-0.04929404
1	0x3d2e991f	0.042626496
2	0xbee9eff5	-0.45690885
3	0xbe0e4589	-0.13893713
4	0x3c8435fe	0.016139027
5	0xbe27c1c1	-0.16382505
6	0x3cf411cd	0.029793644
7	0xbeaf804d	-0.34277573
8	0x3ef49361	0.4776869
9	0x3e8ce1d7	0.27516052
