model.pth (torch, 408896 bytes, 4 tensors)

fc1.weight f4 [128, 784]
0	0xbd005c8b	-0.031338256
1	0x3ccbbcae	0.024870243
2	0xbce0e7a6	-0.027454209
3	0x3c8aed52	0.016958866
4	0x3c9c1b05	0.019055853
5	0xbcdc3bfa	-0.026884068
6	0x3bc75961	0.006083653
7	0x3bc2ca3d	0.005944519
8	0xbca1ed66	-0.01976652
9	0xbca41cda	-0.020033289
10	0xbbe44204	-0.0069658775
11	0xbcce1eef	-0.025161235
12	0x3c987feb	0.018615684
13	0x3cc23409	0.023706453
14	0x3bfd2418	0.00772525
15	0x3bb363ea	0.005474557
16	0xbb2c22a0	-0.0026265755
17	0xbac631cf	-0.0015121045
18	0x3d122613	0.03568084
19	0x3c4788d3	0.0121786175
20	0x3cc1a2be	0.023637172
21	0x3cd2ad2c	0.02571734
22	0xbc7f72a7	-0.0155913
23	0x3be193fd	0.0068840967
24	0x3ce38dd5	0.027777592
25	0xbaa1fde8	-0.0012358995
26	0x3d178f19	0.037001703
27	0x3c4e7fb3	0.012603688
28	0xbc357f6e	-0.011077745
29	0x3ce498c0	0.027904868
30	0x3c805a63	0.0156681
31	0x3bca36fd	0.006171106
32	0x3c610253	0.013733464
33	0x3ce7646c	0.028246127
34	0xbaab730e	-0.0013080554
35	0x3ade18f8	0.0016944697
36	0xbc385ff3	-0.011253345
37	0xbd024559	-0.031804416
38	0x3c858193	0.016297137
39	0x3cca9dc9	0.024733441
40	0x3c989549	0.018625872
41	0xbc831a08	-0.016003624
42	0x3cfe0c8e	0.031011846
43	0xbbb69dbb	-0.005573002
44	0xbcd19de3	-0.025587982
45	0x3c017beb	0.0079030795
46	0x3ceae5b9	0.028673993
47	0x3cb3ec89	0.021963375
48	0xbc922903	-0.017841822
49	0x3c290fa5	0.010318671
50	0x3c51dc77	0.012808911
51	0x3b180c66	0.002320075
52	0xb90c96d8	-0.00013407634
53	0x3ce0ff8c	0.027465604
54	0xbcfaf225	-0.030633042
55	0x3cc0ee97	0.023551269
56	0x3a0c781d	0.00053584744
57	0xbcf9abd0	-0.030477434
58	0xbcad6d53	-0.021170294
59	0xbbc006b2	-0.005860173
60	0x3c9158e9	0.017742591
61	0xbcf9f3e4	-0.030511804
62	0x3bd32721	0.0064438735
63	0x3d0d1104	0.034440055
64	0xbc82ef88	-0.015983358
65	0x3d0e0079	0.03466842
66	0x3c3a1be5	0.01135919
67	0xbb55ce04	-0.0032624016
68	0x3c2abf97	0.010421655
69	0xbb726020	-0.0036983564
70	0x3cf41cc3	0.02979887
71	0x3cfc318e	0.030785348
72	0x3c90f03e	0.017692681
73	0x3ccb86be	0.024844524
74	0x3c878bc2	0.016546134
75	0xbbd2ac7b	-0.0064292527
76	0x3cdb01c7	0.026734246
77	0x3d0b2c99	0.03397808
78	0x3ae04eaf	0.0017113293
79	0xbc85939a	-0.016305733
80	0xbd0467cd	-0.032325555
81	0xbc9f0556	-0.019411724
82	0x3d0658e2	0.03279961
83	0x3ce2f16e	0.027703013
84	0x3d159761	0.03652132
85	0x3d0e5dbb	0.034757357
86	0x3c6dfc4e	0.014525486
87	0x3c8580da	0.016296793
88	0x3d14368f	0.036184844
89	0x3cf95bd3	0.030439293
90	0xbc94d4b5	-0.018167833
91	0xbc6123c5	-0.013741438
92	0x3ca7519d	0.020424658
93	0xbca38798	-0.019962117
94	0x3d1380bf	0.036011454
95	0xbbf0effc	-0.007352827
96	0xbc2e7984	-0.010649089
97	0xbcf9499c	-0.030430607
98	0xbc830e10	-0.015997916
99	0xbd038b07	-0.03211501
100	0xbc8a9b7f	-0.01691985
101	0x3c05eca2	0.008174093
102	0xbc068034	-0.008209277
103	0x3bf78977	0.007554229
104	0x3c910493	0.017702376
105	0xbcdf9bac	-0.02729591
106	0x3cc9f500	0.024652958
107	0xbd085cfc	-0.0332918
108	0xbcb62f06	-0.02223922
109	0x3cdeea17	0.027211232
110	0xbc339c8a	-0.010962615
111	0xbc7e8180	-0.015533805
112	0xbb596ad2	-0.0033175242
113	0xbd0b1a6d	-0.03396075
114	0x3c65019c	0.0139774345
115	0x3cad1815	0.021129647
116	0xbcd77861	-0.026302518
117	0xbcbee41a	-0.023302127
118	0x3d1799f7	0.037012067
119	0x3d0dd224	0.034624234
120	0xbc5b79b0	-0.013395712
121	0x3c325aa0	0.0108858645
122	0xbd0383fb	-0.03210829
123	0xbd023562	-0.03178919
124	0xbcdeac19	-0.027181672
125	0xbcbf09b4	-0.023320056
126	0xbc5d612a	-0.013511935
127	0x3c2ae468	0.010430433
128	0x3c955da6	0.018233132
129	0x3bd26204	0.006420376
130	0x3d143e93	0.036192488
131	0xbb9725be	-0.0046126535
132	0x3b340b67	0.0027472617
133	0x3c1fb134	0.009746838
134	0xbc8780a4	-0.016540833
135	0x3c2130a3	0.009838256
136	0xbcbc2015	-0.022964517
137	0x3ca4da9f	0.020123778
138	0x3d0d883f	0.034553763
139	0xbcdec1fa	-0.027192105
140	0x3cbda790	0.02315119
141	0x3ceddc57	0.02903573
142	0x3c82fd8b	0.01599004
143	0xbd0b2cfb	-0.033978444
144	0xbc8e3a43	-0.017361766
145	0xbc64a0bc	-0.013954338
146	0x3cdc04e7	0.026857806
147	0xbc9eaf84	-0.019370802
148	0xbc155df9	-0.009116643
149	0x3c4ef07f	0.012630581
150	0x3bfeb161	0.00777261
151	0xbcb8912f	-0.022530166
152	0x3c428f4c	0.011874985
153	0x3c000830	0.007814452
154	0x3d158d3a	0.036511637
155	0xbd0107bc	-0.031501517
156	0x3c10d43a	0.008839661
157	0xbbbc8964	-0.005753683
158	0xbc86c690	-0.016452104
159	0x3cf73a32	0.030179117
160	0xbbadbbcc	-0.005301928
161	0x3cc5e9e5	0.024159381
162	0x3c433e03	0.01191664
163	0x3d02be91	0.03192002
164	0xbc74fe89	-0.014953264
165	0x3c3e8bab	0.011629979
166	0x3b9e5d97	0.004832934
167	0x3b9c5c97	0.0047717798
168	0xbcd90073	-0.026489472
169	0xbce82516	-0.028337996
170	0x3bc3e5bd	0.0059783147
171	0x3be2dba1	0.0069231545
172	0x3c337605	0.010953431
173	0x3bf6d9b9	0.007533279
174	0x39b4f96c	0.0003451811
175	0x3c88dcae	0.01670679
176	0x3d112813	0.03543861
177	0xbb8fd441	-0.0043893163
178	0x3d0af65f	0.033926364
179	0xbbc67d80	-0.0060574412
180	0x3cac7e01	0.021056177
181	0xbc05da1d	-0.008169678
182	0x3b878771	0.004136019
183	0x3c9675f9	0.0183668
184	0x3d1672ae	0.03673046
185	0x39f17c3b	0.0004605966
186	0x3ca038fc	0.019558422
187	0x3d075438	0.0330393
188	0x3c6be595	0.014397998
189	0xbce46e24	-0.02788455
190	0x3cc0177b	0.023448696
191	0x3c4ef231	0.012630985
192	0xbccb7ec5	-0.024840722
193	0xbc86847b	-0.016420593
194	0xbcc5d4f1	-0.02414939
195	0x3d17f350	0.037097275
196	0xbd06539a	-0.032794572
197	0xbce9e06a	-0.028549392
198	0xbc401885	-0.011724596
199	0xb99057f1	-0.00027531342
200	0x3c940380	0.018068075
201	0xbc60cb9a	-0.013720417
202	0x3d02b3ae	0.031909637
203	0x3aa00504	0.0012208526
204	0x3c6be5b6	0.014398029
205	0xbcc9989e	-0.024608906
206	0x3cfb7bb1	0.03069863
207	0x3cf35f15	0.029708425
208	0xbb66bd0f	-0.0035207903
209	0xbcd76a60	-0.02629584
210	0x3b01bb18	0.0019795354
211	0xbcca1518	-0.024668261
212	0x3c479067	0.012180424
213	0x3cbedbbd	0.023298139
214	0xbcddcb5d	-0.02707451
215	0x3c6d7edf	0.01449558
216	0xbb8f929f	-0.0043814923
217	0x3c898b37	0.016790016
218	0xbc8d97eb	-0.017284354
219	0x3c1a5e1c	0.0094218515
220	0x3c7a699f	0.015283971
221	0x3cf6d14f	0.030129103
222	0x3c252fea	0.010082224
223	0x3a9aee64	0.0011820314
224	0xbccadb13	-0.024762666
225	0x3c62c313	0.013840455
226	0xbba97c57	-0.005172293
227	0x3ca7fadc	0.020505361
228	0xbcbd8ec8	-0.023139372
229	0xbc8f7b9d	-0.017514998
230	0xbcb05456	-0.02152459
231	0xbb8ce637	-0.0042999047
232	0xbc4c2d91	-0.012462036
233	0x3d030060	0.03198278
234	0x3c96cd5e	0.018408474
235	0xbc5c0357	-0.013428531
236	0x3cc35823	0.023845738
237	0xbcd6a2a6	-0.026200604
238	0x3c9e5c77	0.0193312
239	0xbce2cd39	-0.027685748
240	0x3cbcd401	0.02305031
241	0x3d0f35ec	0.034963533
242	0xbc9e7126	-0.019341063
243	0xbc2db436	-0.010602048
244	0x3c644726	0.013932979
245	0xbd05a1c1	-0.032624964
246	0xbc8b844a	-0.017030854
247	0xbc9d62ad	-0.019212091
248	0x3a05c15d	0.0005102361
249	0x3d06c923	0.032906663
250	0xbb34eafc	-0.0027605882
251	0xbc79bda6	-0.01524297
252	0xbc9a92bf	-0.018868802
253	0xba5f79f0	-0.0008524945
254	0x3d05bfd6	0.032653652
255	0x3b88eaeb	0.004178395

fc1.bias f4 [128]
0	0xbd05460c	-0.032537505
1	0xbc32c65d	-0.010911551
2	0xbc89bd92	-0.016814027
3	0x3d06e7f5	0.032936055
4	0xbbb591ac	-0.005541047
5	0xbc834e23	-0.01602847
6	0xbcfa7af2	-0.030576203
7	0x3cac6cf9	0.021048056
8	0x3d0dc7e3	0.034614455
9	0x39ca867c	0.0003862864
10	0x3bc23dd5	0.005927781
11	0xbb200d18	-0.0024421867
12	0x3d02da50	0.03194648
13	0xbca7bc90	-0.020475656
14	0x3bc9a623	0.0061538382
15	0x3c4f23c9	0.012642809
16	0xbb01a493	-0.0019781932
17	0x3b3364a0	0.002737321
18	0xbaaea7ee	-0.0013325193
19	0xbcf7c7f7	-0.030246718
20	0x3ce49593	0.027903354
21	0x3cce4a3e	0.025181886
22	0xbd35099d	-0.04419862
23	0x3c086726	0.008325374
24	0xbcdf4c5e	-0.027258094
25	0xbbe5c87e	-0.007012426
26	0x3cc1ac9c	0.023641877
27	0x3c19b243	0.00938088
28	0x3bc7bb37	0.006095316
29	0x3c88da5c	0.016705684
30	0xbbfcba2b	-0.0077126226
31	0xbcc4f965	-0.024044702
32	0xbc11501c	-0.008869197
33	0x3c738616	0.014863512
34	0x3c65cca1	0.014025838
35	0x3cbb7792	0.022884164
36	0xbcca25c5	-0.024676213
37	0xbce71c40	-0.028211713
38	0xbcf8c1d3	-0.03036586
39	0x3cc65834	0.02421198
40	0xbd0cccb1	-0.034374896
41	0xbca53d07	-0.020170702
42	0x3b49ec3c	0.0030810973
43	0x3ce71760	0.028209388
44	0xbcac597e	-0.021038767
45	0xbb2e0f1d	-0.0026559301
46	0x3c9f4e17	0.019446416
47	0xbc2e15e9	-0.010625341
48	0xbd0854f5	-0.033284146
49	0x3c378c66	0.011202907
50	0x3b28d742	0.002576307
51	0xbd1cf39f	-0.038318273
52	0xbd079bc1	-0.033107523
53	0xbc7bc25d	-0.015366164
54	0x3cfb2fca	0.030662436
55	0xbc98722d	-0.01860913
56	0x3bb4acfd	0.005513786
57	0x3c6a0249	0.014282771
58	0xbd076ff2	-0.033065744
59	0x3c81b362	0.015832607
60	0xbbd4a5bd	-0.006489484
61	0xbcbdda14	-0.023175277
62	0x3bf444d8	0.007454496
63	0xbc036ed2	-0.008022027
64	0x3c395a6b	0.011313061
65	0x3caea5e5	0.021319339
66	0xbcd50e8c	-0.026007913
67	0x3ca89460	0.020578563
68	0xbc894382	-0.016755823
69	0x3cf9d772	0.03049824
70	0xbc3f3f87	-0.011672861
71	0xbd04216d	-0.03225844
72	0x3ccf5d33	0.025312996
73	0x3cf9ab27	0.03047712
74	0x3c8e702b	0.01738747
75	0xbd0a2dad	-0.033734966
76	0xbc8cf7ef	-0.017208068
77	0xbd1c3a28	-0.0381414
78	0xbb98c84b	-0.0046625487
79	0xbcc19168	-0.023628905
80	0xb9c1cf35	-0.0003696621
81	0x3cab0dbc	0.020880572
82	0xbbdc4ca8	-0.0067230053
83	0x3c41eb1e	0.011835841
84	0x3c82ee65	0.015982816
85	0x3c804fbd	0.015663022
86	0xbab7e4f3	-0.0014030024
87	0x3cc27588	0.023737684
88	0x3d0184e1	0.031620864
89	0xbcf9d0a8	-0.030495003
90	0xbcabb8a5	-0.020962069
91	0x3b0b6aaf	0.0021273305
92	0x3c703512	0.01466109
93	0xbcce49c0	-0.025181651
94	0xbd1179ba	-0.035516478
95	0xbcdeb45c	-0.027185611
96	0x3b0c24fb	0.0021384347
97	0x3cd13b35	0.025540927
98	0x3c6a04a2	0.014283331
99	0x3c1fb8a9	0.009748616
100	0xbc7152f3	-0.014729249
101	0xbd15f8f6	-0.03661438
102	0x3cacc850	0.02109161
103	0x3cd2fe0a	0.0257559
104	0x3bba01e6	0.005676496
105	0x3c8f2cb6	0.017477375
106	0xbbc54126	-0.006019729
107	0xbb94ba66	-0.004538822
108	0x3cab7749	0.020930903
109	0xbc0b2a7d	-0.008494017
110	0xbc9c5745	-0.019084582
111	0x3cec53a4	0.028848477
112	0x3c508c9d	0.012728837
113	0x3b49294c	0.003069478
114	0x3c241c77	0.010016552
115	0x3c6f5ca8	0.014609493
116	0xbcd1da0c	-0.025616668
117	0x3c915311	0.017739804
118	0xbb27c964	-0.0025602216
119	0xbc7fad1e	-0.015605239
120	0xbc37cf31	-0.011218832
121	0x3c471dca	0.012153098
122	0x3ceb45ed	0.028719867
123	0xbb4f7766	-0.003165686
124	0xbca62733	-0.020282364
125	0x3cf2c9ab	0.029637178
126	0x3c1de1a4	0.009636316
127	0xbc66dd19	-0.0140908

fc2.weight f4 [10, 128]
0	0x3d87b8e1	0.0662706
1	0x3d59c538	0.053166598
2	0xbd6864a9	-0.056736622
3	0x3ee95e0d	0.45579568
4	0xbe1683e4	-0.1469875
5	0xbd614e5c	-0.05500637
6	0x3d9c0895	0.076188244
7	0x3e09a270	0.13440871
8	0xbd7fcb72	-0.06244988
9	0xbc4f191b	-0.012640263
10	0x3dcb1a5e	0.099171385
11	0x3d91b548	0.07114655
12	0x3e179f56	0.14806876
13	0xbd947401	-0.072486885
14	0x3e2064c4	0.15663439
15	0x3e940a68	0.2891419
16	0x3e675d77	0.22594248
17	0x3da37c12	0.07982649
18	0x3d3d65db	0.046239715
19	0xbe8eb4f5	-0.27872434
20	0xbe701a84	-0.23447615
21	0xbcfb854e	-0.030703213
22	0x3e74bf1a	0.23901024
23	0xbd3a69d3	-0.045511078
24	0x3e863966	0.26215667
25	0xbd7f8bb0	-0.062389076
26	0x3e07031b	0.13184778
27	0xbc370f6f	-0.011173113
28	0xbe47089b	-0.19436876
29	0xbe950561	-0.29105666
30	0x3d862b6d	0.065512516
31	0xbd447231	-0.047960464
32	0xbe8c2da4	-0.2737857
33	0xbdac94f6	-0.084268495
34	0x3d0ffd89	0.0351539
35	0x3d5c69b2	0.053811736
36	0xbd561683	-0.052267563
37	0x3c39901f	0.011325865
38	0xbd4361c0	-0.047700644
39	0x3ea77b7b	0.32711396
40	0x3db4372a	0.08799584
41	0xbe35657f	-0.17714499
42	0xbe548cc8	-0.20756829
43	0xbd6d0f01	-0.057875637
44	0x3dcc49f4	0.09975043
45	0x3e0091eb	0.12555663
46	0xbcbe632d	-0.02324065
47	0x3daf5252	0.08560623
48	0xbe990831	-0.29889062
49	0x3e8b864b	0.27250895
50	0x3d4e14c3	0.05031277
51	0xbdcee433	-0.10102119
52	0xbd7559f4	-0.05990024
53	0x3c22eb28	0.009943761
54	0x3c809aa0	0.015698731
55	0x3d93c43f	0.07215165
56	0xbd84c88b	-0.06483563
57	0xbf147420	-0.5798969
58	0x3dc1b4b4	0.094582945
59	0xbd8052f5	-0.06265823
60	0x3d800f71	0.06252945
61	0xbda21670	-0.07914436
62	0xbe2b39c5	-0.16721256
63	0x3da84308	0.0821591
64	0x3e1c4764	0.15261608
65	0xbebefd02	-0.37302405
66	0x3d63e7d3	0.055641007
67	0x3d8cae09	0.06869132
68	0x3c7ed706	0.015554195
69	0x3dbb065a	0.09132071
70	0xbd10b5cf	-0.035329636
71	0x3ebeac53	0.37240848
72	0x3e4faa13	0.20279722
73	0x3ebd2a71	0.36946443
74	0xbe9b3986	-0.30317324
75	0x3da29a81	0.079396255
76	0x3a895301	0.0010477008
77	0x3e80680a	0.25079376
78	0x3e75b335	0.23994143
79	0xbc38bf54	-0.011276085
80	0xbe70cd5e	-0.23515841
81	0xbe94728f	-0.2899365
82	0x3ea4db4a	0.32198554
83	0x3ebab7a2	0.36468226
84	0xbe9d60d8	-0.30737948
85	0x3b95f58d	0.004576391
86	0x3dcde5de	0.10053609
87	0xbc7353e1	-0.014851541
88	0xbc931a7a	-0.017956961
89	0xbeb4e550	-0.35331202
90	0x3d2b4241	0.04181123
91	0xbd4d5c48	-0.050136834
92	0xbe6cf655	-0.23140843
93	0xbe4cb21e	-0.19989821
94	0xbd76c040	-0.060241938
95	0xbe9cc3e1	-0.30618194
96	0x3d22dd00	0.039761543
97	0x3c682f4b	0.014171432
98	0x3d603390	0.054736674
99	0xbe23ecee	-0.1600835
100	0xbd824aa6	-0.06361894
101	0xbe202740	-0.15639973
102	0xbdc6ce49	-0.097073145
103	0xbd7e24a2	-0.062046655
104	0x3cb6935f	0.022287069
105	0xbcc23c1f	-0.023710309
106	0xbe85de9d	-0.26146403
107	0xbd9e439a	-0.07727738
108	0xbd903961	-0.07042194
109	0xbcfb5cf5	-0.030683974
110	0xbd74c797	-0.059760656
111	0x3d8a8921	0.067644365
112	0xbc9f4670	-0.019442767
113	0x3d0871fc	0.03331183
114	0x3d8e17a1	0.069381006
115	0x3d3474fe	0.044056885
116	0x3b8fcdea	0.0043885605
117	0x3d7ef23e	0.06224274
118	0xbe57b0fb	-0.21063606
119	0xbda7fe4c	-0.082028
120	0xbda02158	-0.0781886
121	0xbe03ae11	-0.1285937
122	0x3e88e91d	0.2674035
123	0x3e0cb637	0.13741384
124	0x3d6d292a	0.057900585
125	0x3d8b3516	0.06797235
126	0xbd5ac795	-0.053412993
127	0xbe8de7aa	-0.27715808
128	0x3b9ad7b7	0.0047254222
129	0x3e0c24d3	0.13685922
130	0xbe394551	-0.18092848
131	0xbe5280d5	-0.20556958
132	0x3cc8f575	0.024531106
133	0x3d6cea77	0.05784079
134	0xbca3fdff	-0.020018576
135	0x3e81765d	0.25285617
136	0xbdaac15e	-0.08337663
137	0x3da77476	0.0817651
138	0xbe32bec3	-0.17455582
139	0x3e913ed6	0.28368253
140	0xbde1d24c	-0.11026439
141	0xbdb13422	-0.08652522
142	0xbe7ba25e	-0.24573657
143	0xbe9f6b51	-0.31136563
144	0x3eaaebfb	0.33383164
145	0xbd10508a	-0.035233058
146	0xbe868c4c	-0.26278913
147	0xbda5bd68	-0.08092767
148	0x3dd45370	0.10367477
149	0xbcbcfcb9	-0.023069726
150	0xbd19b18e	-0.037522845
151	0x3d782879	0.060585473
152	0xbe1aafb4	-0.15106088
153	0xbddf03d5	-0.10889403
154	0xbe84edb7	-0.25962612
155	0xbd00ddac	-0.031461403
156	0x3e0e0853	0.13870363
157	0x3d9f4257	0.07776325
158	0x3d90dea3	0.070737146
159	0x3e5519bd	0.208106
160	0xbe8282e5	-0.2549049
161	0xbe479ea1	-0.19494106
162	0xbbda698f	-0.0066654156
163	0xbd16847d	-0.036747444
164	0x3d8e4a31	0.06947745
165	0xbc4cdd0b	-0.012503873
166	0x3e5d78cd	0.21628113
167	0xbe11b111	-0.14227702
168	0x3d10ff50	0.035399735
169	0x39359651	0.00017317502
170	0xbdd9732e	-0.10617672
171	0x3dadb80c	0.0848237
172	0x3e193fd6	0.14965758
173	0xbe29c4b8	-0.16578948
174	0x3c787fe3	0.015167209
175	0xbd63aefa	-0.055586793
176	0x3dc08f93	0.094023846
177	0xbe875ce6	-0.26438063
178	0xbde8fa44	-0.113758594
179	0x3f1551c8	0.58327913
180	0xbd4f39dd	-0.050592292
181	0x3ee4e9fa	0.4470976
182	0xbb88139d	-0.0041527287
183	0x3dd224ea	0.10260947
184	0x3eb56dd7	0.35435364
185	0x3d0abc7d	0.033871163
186	0x3d82704b	0.063690744
187	0xbd2a6eda	-0.041609623
188	0xbe8240ed	-0.2544016
189	0x3df4eef8	0.11959642
190	0x3e294a1f	0.16532181
191	0x3c8e1436	0.017343622
192	0x3bb12b21	0.0054067527
193	0x3eaa2d50	0.33237696
194	0x3c686d8c	0.014186274
195	0x3d87ae15	0.066250004
196	0xbd59cf1f	-0.05317604
197	0xbd91257a	-0.07087226
198	0xbba9ba60	-0.0051796883
199	0xbdc67671	-0.0969056
200	0xbdb4f5c8	-0.088359416
201	0xbcedf510	-0.029047519
202	0xbde18919	-0.110124774
203	0xbc4f8253	-0.012665349
204	0x3e9a2470	0.30105925
205	0xbe83696d	-0.2566637
206	0xbe629df5	-0.22130568
207	0xba3663ef	-0.000695764
208	0xbdb32926	-0.08748083
209	0x3c30dd55	0.010794957
210	0xbedec701	-0.43511203
211	0xbd407ad9	-0.046992157
212	0xbbcafb3f	-0.0061945016
213	0x3e6a3177	0.22870432
214	0xbdbfe990	-0.093707204
215	0xbda4ff7f	-0.080565445
216	0xbd26a943	-0.040688764
217	0x3e561f00	0.20910263
218	0xbdaca92a	-0.08430703
219	0x3ddceea2	0.10787703
220	0x3d26a2f8	0.040682763
221	0xbcddcd6b	-0.02707549
222	0x3d507960	0.050897002
223	0xbe604411	-0.21900965
224	0xbc07bf18	-0.008285306
225	0x3d6389b3	0.055551242
226	0xbc91f488	-0.017816797
227	0x3740c16c	1.1489126e-05
228	0x3e0b134f	0.13581584
229	0xbe22dfce	-0.15905687
230	0xbc93e444	-0.018053181
231	0x3d7e9901	0.062157635
232	0x3d8474a9	0.06467564
233	0x3db1eb8e	0.086875066
234	0x3d12505c	0.035721168
235	0x3dcc037f	0.09961604
236	0xbd027c46	-0.031856798
237	0x3da4ed59	0.08053083
238	0x3d91a7e2	0.07112099
239	0xbd37b7cb	-0.044853013
240	0xbd0f7435	-0.035022933
241	0xbd8d503d	-0.0690007
242	0x3e91e27e	0.28493112
243	0x3da41788	0.08012301
244	0x3dde30ed	0.108491756
245	0xbcadc944	-0.021214135
246	0x3db54867	0.088517
247	0x3eb8f0a0	0.36121082
248	0xbdb34920	-0.08754182
249	0xbdc1659d	-0.09443209
250	0xbe652709	-0.22378172
251	0xbdbcaf8d	-0.09213171
252	0xbe9b0876	-0.30279893
253	0x3e587ee1	0.2114215
254	0xbcf3b4b2	-0.029749248
255	0x3e65e900	0.22452164

fc2.bias f4 [10]
0	0x3cf50e17	0.029913945
1	0xbd86f8cc	-0.06590423
2	0xba9e61df	-0.0012083611
3	0x3b909272	0.004411989
4	0x3dd29b65	0.102835454
5	0x3d52515a	0.051347114
6	0xbd986a17	-0.0744211
7	0xbdda6742	-0.10664226
8	0x3dc8aba0	0.0979836
9	0x3dcdbc20	0.100456476
